mnist/model.pth (torch, 675015 bytes, 9 tensors)

conv1.weight f4 [28, 1, 3, 3]
000000 10 6a 11 3d b5 87 85 be 86 42 e3 3d 0f 51 68 3e
       0.03550154 -0.260801 0.11096673 0.22687171
000010 7c 5d b2 3e 26 62 14 3e c2 c0 72 bd 85 a0 7f be
       0.34836948 0.14490566 -0.05926586 -0.24963577
000020 06 5d b4 bb 8d 5f a6 be 51 79 93 be 95 67 a3 be
       -0.0055042533 -0.32494774 -0.28803495 -0.31914964
000030 79 60 68 3e 79 4e 26 3e 17 98 4c 3e c6 d7 c6 bd
       0.22693051 0.16240872 0.19979893 -0.09709124
000040 b6 d1 07 3e 96 d1 08 be 7c d7 1e be 5d 6e 53 bc
       0.13263592 -0.133612 -0.15511888 -0.012904731
000050 a9 57 a0 be 26 a7 9f 3e 32 80 43 3e 41 bd e5 bd
       -0.3131688 0.31182212 0.19091871 -0.11217738
000060 c3 d8 99 be fb 4d 9f bd 0b f4 b7 3d 05 bc 16 3e
       -0.3004819 -0.077785455 0.089820944 0.14720161
000070 57 19 f7 3d a4 db 87 be f6 6b 33 3e b2 3b 91 3e
       0.1206538 -0.2653476 0.17521653 0.28365856
000080 15 0f 18 be 20 2a 42 bd e3 a9 38 3e d9 30 53 3e
       -0.14849503 -0.047403455 0.18033557 0.20624103
000090 68 54 2c 3e d1 f4 07 3e 88 f1 8a be 13 ec 2d be
       0.16829073 0.13276984 -0.271374 -0.16984586
0000a0 9e 7a 9c be bb 91 a2 3d 56 85 87 bd 67 b5 35 be
       -0.305623 0.07937952 -0.06617229 -0.17744981
0000b0 95 a0 5d 3d 1b 0c 11 bd a5 a5 91 3e 09 20 09 3c
       0.05410822 -0.035411935 0.2844669 0.008369454
0000c0 e4 1a 70 3e 7c 2a 4b be 56 11 76 3d 5c a1 ba 3d
       0.23447758 -0.19840425 0.060075127 0.09112808
0000d0 d8 f2 44 be 51 22 44 3e b2 2a 63 3d d2 bd 9d be
       -0.19233263 0.19153716 0.05546064 -0.30808884
0000e0 27 a7 9e be aa 26 4a 3e e6 0e b8 3d 9e ab 57 be
       -0.30986902 0.19741312 0.08987217 -0.2106156
0000f0 b0 5a 7e be 04 ea b9 bd 29 d9 9d 3e 21 1d 9b be
       -0.24839282 -0.09077838 0.30829743 -0.3029566
000100 91 99 66 be 91 9d e0 bc 47 14 a0 3e d8 aa 16 3d
       -0.22519518 -0.027418884 0.3126547 0.036784023
000110 bc d4 0e be 79 a1 40 3e 4d 64 7f be 8a 3e 19 3e
       -0.13948339 0.18811597 -0.24940605 0.14965263
000120 5a 57 90 3e 2d 8b 91 be 10 d5 9a be 15 16 a3 3b
       0.28191644 -0.28426495 -0.3024068 0.0049769976
000130 5c da 54 3e 39 fb 01 3e bc 8f 81 3e 62 c8 b7 3e
       0.20786422 0.1269349 0.25304973 0.35895067
000140 83 4c 01 be 42 a9 c4 3d 47 c8 44 be ed ed 4d be
       -0.12626843 0.09602596 -0.19217025 -0.20110293
000150 66 ba 4e 3e 80 d0 96 be ee 1b ef bc 48 69 8c be
       0.20188293 -0.29455948 -0.029188123 -0.27424073
000160 ac 21 4a bd 7d 9f 76 3e 9b 56 04 be 90 a1 3d 3e
       -0.04934852 0.24084277 -0.12923662 0.18518662
000170 b6 a4 b2 3d b0 f0 3b 3e 71 37 8a bd 48 a8 68 3e
       0.08722822 0.18353534 -0.06748856 0.22720444
000180 8b a0 ad be c8 c6 a4 3e 66 c0 5a 3e bc c4 90 3d
       -0.33911547 0.32182908 0.21362457 0.07068774
000190 6d 1e 2d bd 69 f2 9c 3e 7c 29 11 be 44 c3 4a be
       -0.042265344 0.30653694 -0.14175981 -0.1980105
0001a0 44 58 e3 3c 67 98 57 3e b2 0b 06 be 69 87 8b 3e
       0.02775205 0.2105423 -0.13090399 0.27251747
0001b0 19 e8 24 be e5 b9 84 be c6 3d ae bd 98 c5 91 be
       -0.16104163 -0.25923076 -0.08507876 -0.28471065
0001c0 bc 9c 18 bd fd a4 8c 3e c8 c8 47 be bc 3b 33 3d
       -0.03725885 0.27469626 -0.19510186 0.04375814
0001d0 24 d2 27 be 55 0e eb 3d 13 6f 81 be 36 7b be bd
       -0.16388756 0.11477343 -0.25280055 -0.09300844
0001e0 d2 4c 08 bd 51 ff 92 3e b2 a1 76 be 61 4f a1 be
       -0.033276387 0.28710416 -0.2408512 -0.31505874
0001f0 9c 5a 0d bb b3 d1 22 3e eb 3d 1c be 6e 2f 8e 3d
       -0.00215689 0.15900306 -0.15257995 0.0694264
000200 88 40 9c be 0f 54 9f be c8 6a 90 3e 5d f5 dc 3d
       -0.30517983 -0.3111882 0.28206468 0.10788987
000210 a5 81 88 be 3c 88 96 bd 4a 0a 95 3c 96 80 72 3d
       -0.2666141 -0.073502034 0.018193383 0.05920466
000220 a3 d1 a6 3e 2a 5b 6c be b2 79 7b 3e b9 2c 23 be
       0.32581815 -0.23081651 0.24558142 -0.15935029
000230 7f 34 71 3e 6a 33 98 bd 2e f0 95 be 58 7e 51 be
       0.23555182 -0.074316815 -0.29284805 -0.20458353
000240 67 4e 83 3e 7c 4d 85 be cf ce 47 3e 1d be a7 be
       0.25645754 -0.26035678 0.19512485 -0.32762232
000250 1f 1c 43 be 5f 38 87 be d1 bc 65 3d 5e 80 a1 3d
       -0.19053696 -0.26410195 0.056088272 0.07885812
000260 3f d8 b2 3d 7b 89 a4 3e 77 79 00 3e fa fa 2c 3c
       0.08732652 0.3213614 0.12546335 0.010557884
000270 d3 be 01 be c5 71 56 3e 87 3c 61 3d 5c bb 8e 3e
       -0.1267045 0.20941837 0.054989364 0.2787732
000280 4e d8 7a be ab ce 77 be 97 83 45 be 98 65 87 3e
       -0.24496576 -0.24199931 -0.19288479 0.26444697
000290 0a dc 71 3e 1e 4f b2 3d 82 f1 97 be b0 2b 85 be
       0.23619094 0.08706497 -0.29676443 -0.26009893
0002a0 b2 be a1 3e 41 ed 4a 3e 69 bb 9a bd 03 c5 4a 3d
       0.315908 0.19817068 -0.07555277 0.04950429
0002b0 6a 0d 67 be 5a a0 d9 bd 0f 35 c1 bd ee 7f 00 3e
       -0.22563711 -0.10626288 -0.09433948 0.12548801
0002c0 94 dd e5 bd de 5f 81 be 78 1d cb bd aa 1f e4 3d
       -0.11223903 -0.25268453 -0.0991773 0.11138852
0002d0 6e 5a 5b bc fd e9 68 bd 97 c1 4c bd 44 c5 a8 be
       -0.013388259 -0.056863774 -0.04998931 -0.32963002
0002e0 25 65 76 3e f9 b0 ac 3d 6e d1 eb 3d ca 5d 94 3d
       0.24062021 0.08432192 0.11514555 0.07244451
0002f0 65 46 b6 3d 93 92 1a 3d 94 1d 82 3b 43 4b 52 bc
       0.089001454 0.03773744 0.003970811 -0.012835327
000300 b5 7d 75 be f4 36 88 be 0f 98 17 3e 96 e2 15 be
       -0.23973735 -0.26604426 0.148041 -0.14637217
000310 1b e2 60 3e 2f d7 50 bd 87 7e 94 3d 43 7d c4 bd
       0.21961252 -0.050986465 0.07250696 -0.09594204
000320 b3 9f aa be a6 cd 85 be db d9 82 be 17 65 39 be
       -0.33324966 -0.2613346 -0.25556836 -0.18104969
000330 36 cf 06 3c 9d d9 a6 be ed 58 8d 3e 38 3e 95 3e
       0.008228114 -0.325879 0.27606907 0.29149032
000340 3d c1 c4 bd 63 20 0c 3e 8a 94 5b be 05 9a 1e 3e
       -0.0960717 0.1368423 -0.21443382 0.15488441
000350 93 06 db bd cf eb 56 be 73 34 aa 3c 5c d9 c2 3d
       -0.10694613 -0.20988391 0.020776963 0.09514114
000360 d2 6f 0f 3d 49 4e a0 3e 94 c6 ac bd 44 66 d1 bd
       0.03501875 0.31309727 -0.08436313 -0.10224584
000370 80 1e 9f 3d 56 20 4b 3e db 13 1d bb 8f 54 95 3e
       0.07769489 0.19836554 -0.0023968134 0.29166076
000380 15 72 e7 3d 2f 54 de bc 44 e0 86 3d a3 c2 0b be
       0.11301056 -0.027139751 0.06585744 -0.13648467
000390 f7 ec 8b be 00 c2 86 bc 60 3c 41 3e b8 8c 7c be
       -0.27329227 -0.016449928 0.18870687 -0.24663055
0003a0 70 48 17 be 62 97 86 3e cf 08 82 be f4 0f b5 3c
       -0.14773726 0.2628737 -0.25397345 0.022102334
0003b0 76 69 f8 3d da ee 2c 3e 7d fc f0 bc 19 f2 d1 bd
       0.1212949 0.1688799 -0.02941727 -0.102512546
0003c0 21 44 2e 3d 8b 4a 91 3e f1 63 82 3d de d3 aa 3e
       0.04254544 0.28377184 0.063667186 0.33364767
0003d0 5f e8 a7 3e 50 e0 9b be 2a e7 0e 3e 94 94 1f 3e
       0.32794473 -0.30444574 0.1395537 0.15584022
0003e0 d5 42 7b 3e 19 2a d4 bc 9c d5 96 3e b5 2e 8b 3d
       0.24537213 -0.02589898 0.29459846 0.06796018

conv1.bias f4 [28]
000000 4c 5c 80 3e 5d e2 8f 3e a7 28 10 3e d5 39 90 be
       0.25070417 0.2810239 0.14078008 -0.28169122
000010 07 48 b9 3e 51 1f 90 be cf 47 76 3b ec c4 02 3e
       0.36187765 -0.28148893 0.0037579422 0.12770432
000020 02 1f b8 3e db b6 d1 3d a5 77 88 be 1f f4 2f 3e
       0.35961157 0.10239955 -0.26653782 0.17182969
000030 5c 90 16 be b9 7d 97 3d 40 b8 b6 3e 1e 4c bb 3c
       -0.14703506 0.073970266 0.35687447 0.022863444
000040 b4 d1 dc bd 34 ef b0 3e 43 fd 1a be 85 86 94 3d
       -0.10782185 0.34557498 -0.15135674 0.0725222
000050 3b 83 2a be 50 4e 9f bc ae a3 c0 bd a6 6a a0 be
       -0.16651623 -0.019446522 -0.094062194 -0.31331366
000060 de ff 3e be 18 93 63 bd a4 c5 0f be 50 d5 05 be
       -0.18652293 -0.0555602 -0.14040238 -0.13069654

conv2.weight f4 [1, 28, 2, 2]
000000 9b 5d 81 bd 87 72 19 be 1d a5 0e be 98 b9 54 3b
       -0.06316682 -0.14985095 -0.13930173 0.0032459255
000010 f7 e4 95 bb a2 0b 10 be af 9c 06 bb 43 0b 15 bc
       -0.004574414 -0.14066938 -0.0020540168 -0.009096923
000020 50 e0 f0 bd fc 20 8f bc 61 0c 11 3c 87 e7 c2 bd
       -0.11761534 -0.017471783 0.008853049 -0.095168166
000030 a5 a1 7d bd 70 7a 30 bd 6d 35 d9 3c 13 6d a5 3c
       -0.061921734 -0.043085515 0.026514733 0.020193612
000040 16 f6 0d be db 40 08 bd 69 58 1b be 5c 29 0f be
       -0.13863406 -0.033264976 -0.15170445 -0.13980621
000050 0d 18 a8 3d bd b0 56 bd 07 f9 bb bc 8d 29 3a 3d
       0.08207712 -0.052414645 -0.022945894 0.045449782
000060 1f 78 9c 3d a7 7a 4f bc 40 fb b1 bc 21 ff f5 3c
       0.07640099 -0.01266352 -0.02172625 0.030028882
000070 48 55 c4 bd bc 40 a3 3c 40 3b 75 3d f9 af 83 bd
       -0.095865786 0.019928329 0.05987096 -0.064300485
000080 4f b6 6b be 3c 1d 84 bd 28 29 62 be 3d 56 1e be
       -0.23018764 -0.064508885 -0.22086012 -0.15462585
000090 ae 40 a4 bc 14 90 5e 3a 23 64 e0 bc 46 41 df bd
       -0.020050373 0.0008490097 -0.027391499 -0.10901122
0000a0 bf 8e 52 3d a6 42 6d 3d db 5e 2c 3d 10 ff ba bc
       0.051405665 0.05792489 0.04208265 -0.022826701
0000b0 cd 88 aa 3c d2 5e 4e 3b 88 f0 20 be da 8f bc bd
       0.020817185 0.0031489623 -0.15716755 -0.09207125
0000c0 03 52 71 3c 6d 9e 53 3d 08 7a 6e 3d d1 2d 84 3d
       0.014729026 0.05166476 0.058221847 0.06454051
0000d0 d5 30 9f bd 99 65 da 3b 2f 3d 2b bd d1 54 c0 3a
       -0.07772986 0.0066649434 -0.041806396 0.0014673715
0000e0 ab 05 3f bd 1e 76 ed bd 43 ab 13 be a8 d2 f6 bd
       -0.046636265 -0.11594795 -0.144208 -0.12051898
0000f0 f0 c9 6e bc a6 a1 92 3d 24 71 e7 bd 70 93 94 bd
       -0.014574513 0.07159738 -0.11300877 -0.07254684
000100 9e 41 c0 bd e2 a2 10 3b 27 ab 84 3d 85 80 41 3d
       -0.093875155 0.0022069742 0.06477957 0.047241706
000110 56 53 14 be af 6d 31 be c9 ba 03 be d9 0e 18 be
       -0.14484915 -0.17326997 -0.12864222 -0.14849414
000120 ba ff 7e bd bc 94 04 bc 79 ad a9 bd bd 97 27 3d
       -0.0622556 -0.008092102 -0.082850404 0.040916193
000130 cd e9 d0 bd 1d 90 a0 bd ea 5e e7 3b f8 39 af bd
       -0.10200844 -0.078399874 0.007060875 -0.085559785
000140 c3 64 b9 bc 72 59 0d bc 6a a4 5f 3d a7 c6 37 bd
       -0.022631055 -0.008627282 0.054600157 -0.044867184
000150 89 55 9d 3d f3 6b df bc 0b 2a b9 3d 75 5d 90 bd
       0.0768233 -0.027273154 0.09041222 -0.070490755
000160 08 fa 9a 3d b0 91 5a bd 2d 4f 25 3d a7 79 81 3d
       0.07567221 -0.053361595 0.04035871 0.063220315
000170 30 d5 4f 3b 47 48 c1 3d c2 1b bc 3d 6d e9 14 bc
       0.0031712763 0.09437614 0.09184982 -0.009088856
000180 66 54 e1 3c 0a e5 20 bd cc fc b3 bd 94 00 ad 3c
       0.027506065 -0.03928093 -0.087884516 0.02111844
000190 ac 55 98 bd 8c db 83 bd 25 54 ae bd d4 57 b9 3d
       -0.074382156 -0.064383596 -0.08512143 0.09049955
0001a0 ac 09 96 bb be 2f 85 3c 60 78 8b 3c 4b f3 6d 3d
       -0.0045787897 0.016258117 0.017025173 0.05809335
0001b0 f4 8e 76 bc b2 6b 0e be 04 c0 a0 bd 69 0e 3c 3b
       -0.015048731 -0.1390827 -0.07849124 0.0028695113

dense1.weight f4 [250, 625]
000000 4e c9 60 3c 49 aa 05 bd a9 27 7f bb 4d 26 97 bb
       0.01371987 -0.0326331 -0.0038933551 -0.00461272
000010 d9 61 91 3c 16 7c 88 3c f2 13 d3 bc b4 e4 96 3c
       0.017746853 0.016660731 -0.025766347 0.018419601
000020 f4 ec f7 3c 37 dc be 3c 8c 39 dd bc c4 e7 e2 3c
       0.030264355 0.023298366 -0.02700498 0.027698405
000030 70 f5 ba bb 76 37 13 3c 25 c0 ce 3a 1b 75 d5 bc
       -0.005705528 0.008985391 0.0015773816 -0.026056817
000040 f4 cd f6 3b f3 d6 13 3c 97 3f 15 bd 77 3e 35 bb
       0.0075318757 0.009023416 -0.036437597 -0.002765564
000050 cb 11 ba bc 5a 30 a1 3c 46 b5 44 bc 1c 02 8e bb
       -0.022713562 0.019676376 -0.01200611 -0.0043337476
000060 2c e4 f0 bc d0 da 3c bc ef b3 26 bc 22 61 1e bc
       -0.029405676 -0.011526778 -0.010174735 -0.009666713
000070 c8 56 15 bd fb d8 f8 bc 33 33 d5 bc 4a 2d 05 3d
       -0.036459714 -0.030376902 -0.02602539 0.032513894
000080 44 eb 8e bc 94 d5 6a bc 59 a9 e5 bb cf 32 eb 3c
       -0.017446168 -0.014333148 -0.007008713 0.02871075
000090 c7 d0 7b bc 57 d8 d9 bc 9a be 11 3d 33 85 60 bc
       -0.015369601 -0.026592417 0.035582162 -0.013703632
0000a0 dc 29 bd bc 87 f0 fe 3c d9 4d d2 bc 84 ca e4 3c
       -0.02309125 0.031120552 -0.025671886 0.027928598
0000b0 65 c9 a5 3c f6 1b 98 3c ce 08 c6 3c 00 94 d2 bc
       0.020237634 0.01856802 0.02417412 -0.025705338
0000c0 b9 13 85 bb d7 22 72 bc 20 83 ce 3c f0 6d 08 bc
       -0.004061189 -0.014778814 0.02520901 -0.008326992
0000d0 16 a4 fa 3c 7c 20 ef 3c a9 d0 9c bc 14 1c 87 bc
       0.03059582 0.029190294 -0.019142466 -0.01649288
0000e0 9c 30 ce 3c e2 a8 ad 3c fa da 38 3c b2 14 f7 3c
       0.025169663 0.021198694 0.011282677 0.030161235
0000f0 63 8f 20 3c f2 15 e7 bc 26 a2 79 3c fd 08 12 bd
       0.009799811 -0.028208707 0.015236413 -0.035653103
000100 b7 01 fd bc 8b af dc 3b a9 54 1e 3d d3 6b b0 3c
       -0.030884607 0.0067347935 0.038654957 0.02153579
000110 e8 0e d8 bc 17 0a d1 bb 85 ee 26 3c bf 74 ab bc
       -0.026374295 -0.0063793766 0.010188703 -0.020929692
000120 13 9e e8 bb f0 b7 9f 3c e6 db 09 3d 3d ba 55 3c
       -0.007098922 0.019496888 0.033656977 0.013044891
000130 29 f8 0d bc 26 64 b2 bc fe 94 84 bc 6f e1 1a 3d
       -0.008665123 -0.02177627 -0.016184326 0.037812646
000140 9e fa bf 3b e7 56 23 bd 8f b4 16 bd 0c 75 15 3d
       0.0058587333 -0.0398778 -0.036793288 0.036488578
000150 41 46 72 bc 2c ca bf bc 8b ed 1c 3d be 70 00 3d
       -0.014787258 -0.023411833 0.038312476 0.03135752
000160 3c 29 ec ba c5 c5 81 3a 8c c3 cf bc 42 90 75 3b
       -0.001801766 0.0009900859 -0.025361799 0.0037470018
000170 10 6b 17 3d 93 57 9a 3b cc a5 07 3d 6c 8a 54 bb
       0.036967337 0.0047101467 0.0331171 -0.0032431139
000180 29 41 01 3d dd 01 08 bc 94 50 65 bb f3 57 92 3b
       0.031556282 -0.0083012255 -0.0034990655 0.004466051
000190 95 6b b9 bc 53 f3 15 3d 78 18 ff bc ad 8e 22 bb
       -0.022634307 0.036609005 -0.031139597 -0.002480428
0001a0 a7 a6 66 bc ac 33 f8 bc c6 17 3d bb 87 ae d0 3b
       -0.014077819 -0.030298077 -0.0028853281 0.0063684615
0001b0 58 62 bc 3c d6 89 83 bc 69 e3 17 3d d7 db 1a 3c
       0.022996113 -0.016056936 0.03708211 0.009451828
0001c0 3f d2 1b 3d 70 27 04 3d 14 4a eb 3a 9d 1c cd bc
       0.038042303 0.032264173 0.0017951154 -0.025038058
0001d0 fd 01 4c bc cc 9b c0 3c 4f b1 02 bd f7 8f 04 bd
       -0.012451646 0.02351179 -0.031907376 -0.032363858
0001e0 52 92 06 3d db 47 18 bd 66 12 79 bc ba a0 73 3c
       0.032854386 -0.0371779 -0.01520214 0.014869863
0001f0 43 2a c9 3c 89 c7 e8 bb 05 c0 95 bc e9 3b a1 3c
       0.024556285 -0.0071038646 -0.018280039 0.019681888
000200 bd 20 00 3d eb 24 23 3c 78 57 fb bc 20 11 e9 bb
       0.03128122 0.009957532 -0.030681357 -0.007112637
000210 db 6b 20 3c a0 e6 dd 3c d1 b6 06 3c 22 dd e7 3c
       0.00979134 0.02708751 0.008222298 0.028303687
000220 83 9a 19 bc 03 73 1d 3d bd a4 ed bc 59 bb 01 bd
       -0.009375217 0.03843976 -0.029009217 -0.03167281
000230 73 2a 8a bc 0f 0f cc 3c 7c 88 f1 3c f6 b1 77 3c
       -0.016865944 0.024909524 0.029484026 0.015118113
000240 d9 bf 3a 3c 39 3e ff bc 64 87 93 3c 56 ce ff bc
       0.011398279 -0.0311576 0.018008895 -0.031226318
000250 35 88 e6 3b 58 6d 9f bb 11 10 fa bc bd 15 a6 3c
       0.00703528 -0.0048653297 -0.03052524 0.020274037
000260 8b 03 bd bc 44 89 cd 3c 46 47 18 3d 37 7c 09 3d
       -0.023072978 0.025089867 0.037177347 0.033565726
000270 f7 f5 e2 3b da dc d9 bc db 31 b2 3b 0d 3b dc bc
       0.006926294 -0.026594568 0.005438072 -0.026883626
000280 67 95 ad bc 50 8b 81 bb 92 d7 81 3b c0 75 08 bc
       -0.021189405 -0.003953375 0.0039624656 -0.008328855
000290 a4 42 c7 3c 10 29 49 3c 48 88 53 ba 74 1a e3 bb
       0.024323769 0.0122778565 -0.0008069319 -0.0069306437
0002a0 6b e0 8d 3c c6 03 13 bd ac ac a1 bc 4f 21 a3 3b
       0.017318925 -0.03589227 -0.019735657 0.004978336
0002b0 49 3d bf bc e6 41 9b bc 25 4a c6 3c 9c de 85 bb
       -0.023344653 -0.018952321 0.024205277 -0.004085375
0002c0 40 2d 1a bd 60 f1 98 3b da 11 1c bd 84 63 0e 3d
       -0.03764081 0.004667446 -0.038102962 0.034762874
0002d0 68 6b 09 3d 93 84 80 bb 9f f5 23 3b 75 7a 22 bc
       0.033549696 -0.003922054 0.0025018228 -0.009916891
0002e0 42 9c 89 3c f2 e0 22 3d f9 59 e3 3c 72 e9 ef bb
       0.016798142 0.039765306 0.027752863 -0.00732153
0002f0 fc 30 03 3d f7 ec b1 bc 1d c5 19 3d 5d 13 49 bb
       0.032029137 -0.021719439 0.037541497 -0.0030681707
000300 ba 39 92 3a d8 03 a8 bc b9 5f 08 bd bc 7f 26 3c
       0.001115612 -0.020509645 -0.033294413 0.01016229
000310 e8 2f 99 3c 18 7b ba bb 19 55 ce bc 45 d6 db bc
       0.018699601 -0.0056909434 -0.025187062 -0.02683557
000320 5c 32 d4 bc af 7b c4 3c 10 d9 ba 3b 24 04 bd bc
       -0.02590292 0.023984758 0.0057021454 -0.023073263
000330 c6 22 fd bc 40 27 02 3c d0 e5 07 3d 2e b6 17 b9
       -0.03090037 0.007943928 0.03317815 -0.0001446835
000340 05 0d b7 3c a3 97 18 ba 16 72 b1 bb 18 15 8b bc
       0.022345075 -0.00058209355 -0.0054152114 -0.016977832
000350 59 f2 ab 3c 2b cf f2 bb f5 d2 f8 3c 06 bb 06 3d
       0.020989584 -0.0074099503 0.03037403 0.032893203
000360 3d 72 61 bc 03 55 12 3d 62 ab 52 3c 3d 19 a5 bc
       -0.013760147 0.035725605 0.012858244 -0.020153636
000370 d4 df 18 3b 73 a7 bf bc d5 0c f6 bc 00 b1 14 3c
       0.0023326771 -0.023395276 -0.030035416 0.009075403
000380 7d 09 d5 bc 97 95 95 b8 cc 3b 05 3d 74 aa 0b 3d
       -0.0260055 -7.132737e-05 0.03252773 0.034098104
000390 c7 a8 c4 bc 0f 65 21 bd 87 a6 c3 bc ac 9a 8e 3c
       -0.02400626 -0.039403018 -0.023883117 0.017407738
0003a0 bc 47 9d bc f4 f1 03 bd 71 2a 81 bc 9f 89 47 3c
       -0.019199245 -0.032213166 -0.015767308 0.0121788075
0003b0 44 f0 1d bd 96 eb f5 3b b2 48 22 3d ef 2f 8b 3c
       -0.038559213 0.0075048907 0.03962011 0.01699063
0003c0 9b 93 10 bd 93 7b 65 bc 97 b8 22 bc 27 9a 86 3b
       -0.035297018 -0.014006513 -0.009931705 0.004107732
0003d0 af d4 29 3b 77 f1 15 bb db b8 8c bb 70 38 23 3b
       0.0025914123 -0.002287952 -0.0042944974 0.0024905466
0003e0 e2 a3 90 3c b0 4b 0f bd e6 01 0c bd ce 33 cd bc
       0.01765627 -0.03498429 -0.034181498 -0.025049116
0003f0 02 d5 12 3d b8 8f 0b bd cc de 7e 3c 80 a6 cc 3c
       0.03584767 -0.034072608 0.015556049 0.024981737

dense1.bias f4 [250]
000000 dc 3a bd 3c 9a 9e 55 ba f4 43 8c 3b b2 a5 f6 bc
       0.023099355 -0.00081489387 0.0042805616 -0.030108307
000010 cb ec a9 3c ac ac d2 3c 58 8d b8 3c 2d 53 1f 3d
       0.020742794 0.025717102 0.022528335 0.038897682
000020 ce 55 ef bc 53 65 33 bc 2a 10 87 bc 55 a6 a2 bb
       -0.02921572 -0.010949451 -0.0164872 -0.004963676
000030 1e 59 16 3c 49 0d 22 3d 10 0c 3e 3c 36 10 d4 bc
       0.009176521 0.03956345 0.011599556 -0.025886636
000040 e9 25 30 3d e9 bb 11 3c 5d a5 24 3d d9 93 84 3c
       0.043004904 0.008894899 0.040196765 0.01618378
000050 e6 72 1d 3d 95 4b 29 bc 02 aa 38 bc 30 3a a6 3c
       0.038439654 -0.010332962 -0.011271002 0.020291418
000060 ca dd 1a bc 47 21 a2 bc b3 36 d8 3b 74 79 f8 3b
       -0.009452293 -0.019791258 0.0065983175 0.0075828377
000070 f1 c8 b3 bc 98 44 0d 3d 13 7e 30 3c 38 c9 32 3b
       -0.021946402 0.034489244 0.010772246 0.002728058
000080 d9 d9 f7 3b af b4 0b bd c2 7d fd bc 4a b8 64 3a
       0.0075638113 -0.03410786 -0.030943755 0.0008724971
000090 05 40 5f bc 4c 2f 98 3c 73 3a 65 ba 9b bd 8f 3b
       -0.013626103 0.01857724 -0.00087443664 0.0043866164
0000a0 5d 77 9e bc 8a 6b c4 bb 35 ef 0c 3c 86 8b 9c 3b
       -0.019344026 -0.005994265 0.008601953 0.0047773747
0000b0 31 c8 17 bd 43 83 1b 3c 57 95 06 3a 72 19 78 bc
       -0.03705615 0.009491744 0.00051339477 -0.015142785
0000c0 07 bd 1b 3d de 5a 1f 3d dd f1 6a bb d0 53 0e 3d
       0.038022067 0.038905017 -0.0035849728 0.0347479
0000d0 fc 42 93 ba 18 77 3f 3c 16 99 73 3c 81 ab 39 3c
       -0.0011235173 0.011686109 0.0148680415 0.011332394
0000e0 91 ed 00 3d bf 46 d1 3c f1 8f f4 bc 82 a7 f3 3c
       0.03147656 0.02554643 -0.029853793 0.02974296
0000f0 bf ee fa bc af f7 5a 3c df b9 0b bd a7 e6 34 3b
       -0.030631421 0.013364716 -0.034112807 0.00276033
000100 a2 9b e0 bc 4b 6b fa 3b 8a 3c 92 3c 3e 40 0d bd
       -0.027417962 0.007642185 0.017851133 -0.034485094
000110 41 8a 69 3c b0 37 51 3c 04 7c 6a bb 6a b3 03 3d
       0.014254154 0.012769625 -0.0035779485 0.032153524
000120 4d b2 88 3c f8 a1 75 3c ef 99 ab bc a2 54 ba 3c
       0.016686583 0.01499223 -0.020947425 0.022745434
000130 3f 72 f0 bb ab ec ae 3c d9 a6 1a 3d 36 09 95 3b
       -0.007337838 0.021353086 0.037756775 0.004548217
000140 4e 51 22 3a 2c 40 29 3c f1 4e 37 3b 95 4d d0 bc
       0.0006191925 0.010330241 0.0027970637 -0.025427619
000150 80 b0 ef 3c 46 dc 00 bd 6c bc 31 3c 69 36 57 3c
       0.029258966 -0.03146007 0.010848146 0.013135531
000160 28 ad f3 bc 94 dd d5 bb c6 ff c3 3c 92 87 58 3c
       -0.029745653 -0.0065266583 0.023925673 0.013215916
000170 22 8d cd bc 38 2f 07 39 59 3b 72 bb bd a4 a2 3c
       -0.025091711 0.00012892194 -0.0036961643 0.019853944
000180 5e 42 9e 3c 89 b3 1e 3d 26 32 98 bc e2 e6 85 3c
       0.019318756 0.038745437 -0.0185786 0.016345445
000190 5b 88 c2 3c 72 71 f0 3c 09 30 59 bc 53 87 06 3b
       0.02374666 0.02935097 -0.013256081 0.0020527437
0001a0 d8 12 d1 3c 29 5c 0b bd 83 8b de bb 55 d2 b4 b9
       0.02552168 -0.034023438 -0.0067915334 -0.00034488985
0001b0 df 8a ad bc 31 1d 00 bd 25 cf 0f bc 4e 52 ac bc
       -0.021184383 -0.03127784 -0.008777414 -0.02103534
0001c0 d9 43 94 3a eb 15 99 3c cc 97 fc 3b 13 70 a5 3b
       0.0011311724 0.01868721 0.0077085253 0.0050487607
0001d0 ed 8a 00 3d 84 72 14 bc 59 5b d0 bc 5e 73 1b bd
       0.03138249 -0.009060506 -0.025434183 -0.03795182
0001e0 83 e5 cc 3c 60 ea cd 3c d6 ef 82 bc e3 2d 1d 3c
       0.025011783 0.025136173 -0.015983503 0.00959346
0001f0 4b 9d 25 bc 19 b5 dd bc 46 81 2f 3b e8 a4 0c bd
       -0.010108302 -0.027063893 0.0026779934 -0.034336954
000200 57 f3 e2 3c f7 4d 8c 3c a3 91 c1 bb ae 46 81 3b
       0.027703924 0.01712702 -0.005907254 0.0039451933
000210 28 27 c7 3c 4e 82 8d bc fc 1a bc bc a3 5f f5 bb
       0.024310663 -0.017274048 -0.022962086 -0.0074882074
000220 e7 15 d7 3c 88 35 e9 3c d8 6e 12 bd 85 2c 1a 3d
       0.026255561 0.028467909 -0.03575024 0.037640113
000230 9e ff 6f 3b d7 7b 1d 3d 18 c0 99 bc 37 77 cc 3c
       0.0036620866 0.03844818 -0.018768355 0.02495919
000240 01 34 1f 3d 60 82 b1 3c 9e a4 b6 3c 0b 7f 17 bc
       0.038867954 0.021668613 0.022295292 -0.009246598
000250 9a 1b 2f bc b7 7f 05 bd df 26 c5 3c ab b3 f7 bb
       -0.010687733 -0.0325925 0.024066387 -0.00755926
000260 1c a1 5c bc 40 41 54 bc a0 16 19 3d 08 3e be ba
       -0.013466146 -0.01295501 0.037375093 -0.0014514336
000270 49 e1 18 3d 4c ea d5 ba 58 69 0d 3d 42 f6 b7 3b
       0.037324224 -0.0016320436 0.03452429 0.005614073
000280 40 d6 cd bc 56 64 ba 3c 51 cd ef bb 9d 4d 00 3d
       -0.025126576 0.022752922 -0.007318177 0.031324018
000290 d9 3a 56 bb 59 73 1f bd a4 9f 94 bc 1e 5f 35 bc
       -0.0032688885 -0.038928363 -0.018142529 -0.011070041
0002a0 bf 56 06 3d ef 07 0f bd d4 a0 cc 3c a4 6b 37 3b
       0.03279757 -0.034919675 0.024979033 0.0027987743
0002b0 b9 3e 87 3c 42 90 a6 3c 98 e4 3b bc 59 74 22 bb
       0.0165094 0.02033246 -0.011468075 -0.0024788587
0002c0 be bf 3b 3c ca 78 04 bb 4f 26 dc 3c 5c 71 13 3d
       0.011459289 -0.0020213597 0.026873736 0.03599678
0002d0 e1 0d 3e 3c f3 2b e7 bc 9f 2b 8e 3c b1 9f 6c bc
       0.011599989 -0.028219199 0.017354785 -0.01444237
0002e0 51 40 f6 3c 2e a0 f0 3c a3 8b 8d bc e1 2d f9 3c
       0.030059965 0.029373255 -0.017278498 0.030417385
0002f0 87 d7 4f 3c fd b6 0a bd a7 5d c0 bc 85 9c b2 bc
       0.012685663 -0.033865917 -0.023482157 -0.02180315
000300 ce 8c 9d ba 93 6f 05 3d bd ac 7d 3c 2f ed 17 3d
       -0.0012020112 0.03257711 0.015483079 0.03709143
000310 56 65 f5 3c ad 1a c3 bc bb 10 61 bc 64 57 0c 3d
       0.029955547 -0.023816431 -0.013736899 0.03426303
000320 92 38 14 3d 6d 4f 4c bb 07 7d 89 bc 03 6b 2f bd
       0.036186762 -0.003117527 -0.01678325 -0.042826664
000330 4e 78 df 3c be 43 ce 3b 1e 4d be bc d4 a1 1d 3d
       0.027279045 0.0062946966 -0.023230132 0.03848441
000340 6e 5f 9c 3b ba 13 c8 bc 6d 39 14 bd c3 59 17 3d
       0.0047721183 -0.024423469 -0.036187578 0.036950838
000350 5f 58 f8 bc 47 b2 f3 bc 7c f3 82 3b de 91 67 3c
       -0.030315576 -0.029748095 0.0039963108 0.014133899
000360 0a dc 42 bc e0 ca 82 bc ce d8 82 3c 1a bd a3 bc
       -0.011893282 -0.015965879 0.015972521 -0.019987632
000370 1f f3 d6 3c dd 40 81 bc 1a 3a 94 bc 81 83 16 3b
       0.026238976 -0.015778 -0.018094111 0.0022966566
000380 21 07 a5 bb 0e 4c 13 3c 3e 3e fc 3c f8 c8 df 3c
       -0.00503625 0.008990301 0.030791398 0.027317509
000390 71 64 1c bd 48 16 02 3d 84 d0 d4 3c ef f9 be 3c
       -0.038181726 0.03175953 0.025978334 0.023312537
0003a0 cb 61 c3 bc f0 2f 52 3c f3 d5 36 bc e0 fa 0b 3d
       -0.023850342 0.012828812 -0.011159408 0.0341748
0003b0 6f d6 7b bb 4b 7f d5 bc 33 a2 0a 3c 88 b9 99 3c
       -0.0038427373 -0.026061675 0.008461523 0.018765226
0003c0 8f a0 86 bc 0a fb fc 3c d1 0f 9d 3c 43 f2 f6 bb
       -0.016433982 0.030881424 0.01917258 -0.007536204
0003d0 06 81 f6 bc dd 84 52 bc 8b f6 49 3b 32 66 03 3d
       -0.03009082 -0.01284906 0.0030817117 0.032079883
0003e0 40 23 b2 bb 31 d5 c0 bc
       -0.005436331 -0.023539158

dense2.weight f4 [10, 250]
000000 e1 20 04 3d 66 a8 e2 bb 5c 1e 51 3d d7 d7 f7 3c
       0.03225792 -0.0069170473 0.051054344 0.030254288
000010 b6 93 bd bc 41 72 22 bc 10 c0 7a 3d bd f5 08 bd
       -0.023141723 -0.009914936 0.06121832 -0.03343748
000020 ca 1f ad 3c c0 2a 35 3d 54 08 7e bd b6 a4 5f 3d
       0.021133322 0.044230223 -0.06201966 0.05460044
000030 c8 ce 3c 3d 8f 8b 70 3d cc ab 2b bb 7c 65 60 bd
       0.04609564 0.058726843 -0.0026194928 -0.054784283
000040 b2 d0 18 bd 8c 43 68 bb da 23 45 3d 09 ba e7 3c
       -0.037308402 -0.0035440652 0.048129894 0.02828695
000050 af 9e 64 3d 3e f5 57 3c 28 b4 4c 3d 6d 27 72 bd
       0.055815395 0.013181029 0.049976498 -0.05911963
000060 3f b8 5a 3d 9f be 5c bb a4 dc 5c bd a7 86 00 3c
       0.053398367 -0.0033682955 -0.053921357 0.007844604
000070 47 a0 3c 3d 6b cd 39 bc 41 ec 56 bd c6 f5 7b bd
       0.04605129 -0.011340479 -0.052471403 -0.061513685
000080 8c 7a d2 bc 7c 3f e3 bb fa ad 29 3d 67 e2 9f 3c
       -0.0256932 -0.006935058 0.041425683 0.019517137
000090 fc 30 26 bc a0 bc f9 bc c0 1c bf bc 19 b2 28 bd
       -0.010143515 -0.030485451 -0.023329139 -0.041185472
0000a0 2e 8c 6e bd 56 72 92 3c e3 e0 2d bc 05 d5 ec 3c
       -0.058239155 0.017876785 -0.010612699 0.02891017
0000b0 fc aa 2f 3d 53 ee 34 bd fd 8c e4 3b 25 06 eb 3c
       0.042887673 -0.044172596 0.006974815 0.028689453
0000c0 29 a4 4a 3d 08 35 69 bd bb d0 49 3c 45 e6 71 bd
       0.04947296 -0.05693534 0.012317832 -0.059057493
0000d0 b6 2d 00 3d 25 07 9d 3c e0 df 5f 3d f0 31 20 bd
       0.031293593 0.019168446 0.054656863 -0.039110124
0000e0 aa 87 14 bd a9 a9 1d bd 32 5c d2 bc 3f b3 f8 bc
       -0.03626219 -0.03849188 -0.025678728 -0.030358909
0000f0 17 7f 4d bd 0a b6 6a 3b 03 95 af bc 4c ff 77 3d
       -0.05017003 0.003581407 -0.021433359 0.060546204
000100 10 41 f4 bb 89 3a 44 3c 33 e0 7f bd b2 b9 26 3c
       -0.007454045 0.0119768465 -0.062469672 0.010176109
000110 f4 12 5c 3d 9f 22 23 bd be 96 43 3d 51 d1 58 3c
       0.053729013 -0.03982794 0.04775118 0.013233499
000120 e6 55 66 bd 36 b8 54 bd 5d bc 45 3d 24 b9 2a bd
       -0.056234263 -0.05193349 0.04827534 -0.04168047
000130 ee 60 60 3c 39 c9 0e 3d 42 05 17 3d 23 a2 73 bc
       0.013694985 0.03485987 0.03687025 -0.014870199
000140 5f 13 4a 3d 88 31 74 3d 34 cc bd 3c e7 0b 2a 3d
       0.04933488 0.05961755 0.02316866 0.041515257
000150 d7 9a 54 3d 19 e5 0e bd ef e2 05 bd ad 73 2a bd
       0.05190548 -0.034886453 -0.032687124 -0.041614223
000160 c8 3a 0d 3c 3a 98 5f bd b6 66 75 bc b6 9c 7c bd
       0.008619972 -0.054588534 -0.0149781015 -0.06167289
000170 de 4f 79 3d 7b 5a c1 3c bd 16 75 bc 61 87 7d 3d
       0.060867183 0.023602715 -0.0149590345 0.061896686
000180 a2 42 d0 3c 94 82 7b bd a2 cf 2d 3c 3a e3 ee bc
       0.025422398 -0.061403826 0.010608586 -0.029161084
000190 00 5c 7c 3d c2 cf 01 bd aa 6f 5b bd b6 86 54 bb
       0.061611176 -0.031692274 -0.053573288 -0.0032428927
0001a0 fc 80 85 3d 65 35 29 bd 70 ad e1 bc 50 63 0b bd
       0.065187424 -0.041310687 -0.027548522 -0.03403026
0001b0 3e 22 e6 bc dc 13 35 3d 96 09 8f 3c 2e cf 73 bc
       -0.0280925 0.044208393 0.017460626 -0.014880938
0001c0 94 f8 6d bd 26 62 23 bd ba 78 80 bd 85 87 0c 3d
       -0.05809839 -0.039888524 -0.06273027 0.03430893
0001d0 e6 3c d2 3c 13 f8 20 3c 5c 6a 63 3d 23 f0 02 3d
       0.025663804 0.0098247705 0.055521354 0.031967293
0001e0 22 5e 91 3c 5e 3f 89 3d 94 1c 3c bd b0 27 38 bc
       0.017745081 0.067015395 -0.04592569 -0.011239931
0001f0 d3 8d 6c bd da bc d6 bc 6f d8 5e bd e8 55 4c bd
       -0.05775244 -0.026213098 -0.054405626 -0.049886614
000200 8a d6 06 bd 03 b2 1d 3d c1 87 38 bc aa 46 7c bd
       -0.032919444 0.038499843 -0.011262835 -0.061590828
000210 1a 9d e0 3c f7 82 24 3d 77 99 27 bb af 01 26 bd
       0.027418662 0.04016396 -0.002557365 -0.04052895
000220 46 45 ab bc cb 37 a6 bc 86 be 2e 3d d7 b9 23 3d
       -0.020907056 -0.020290276 0.042662166 0.039972153
000230 02 bc 36 3d 7f 02 08 3d b3 45 95 bc 22 c3 54 bd
       0.044612892 0.033205505 -0.018221712 -0.051943906
000240 3d e6 41 bc 3e 05 74 3d 72 f5 1f 3d 0f 1d 64 3c
       -0.011834678 0.05957531 0.039052434 0.013922944
000250 f3 3c 2a 3d 8f 78 3d bc f5 3e 46 bd f7 46 65 3c
       0.041562032 -0.011564388 -0.048399884 0.01399397
000260 bb 12 ff bc d8 08 05 bc 06 42 40 bd f5 79 c4 3b
       -0.031136861 -0.008119784 -0.046937965 0.0059959837
000270 30 ba b8 3b 0f 3f 74 bd 24 bd d5 bc e8 e9 4b 3b
       0.0056374297 -0.05963045 -0.026091166 0.003111476
000280 b2 44 8b bc 17 f9 7c bc c1 0a 3c bd 1b c5 07 3c
       -0.01700053 -0.015440247 -0.045908693 0.00828674
000290 4e 66 a7 3b ee 64 6e 3c 4f 0c fd 3c 35 f1 98 bb
       0.005108631 0.014550431 0.030889658 -0.004667426
0002a0 76 6e 8b bc 5e 99 21 3b b8 de 4d 3c 57 5a 16 bd
       -0.017020445 0.0024658064 0.012565307 -0.03670725
0002b0 e0 2f 58 bc bd 12 25 bd 8a e5 fb bb 1f ba 11 3d
       -0.013195008 -0.040301073 -0.0076872753 0.03557789
0002c0 29 3a 48 3d 51 1a dc bc 0c 66 48 bd 48 f9 0c 3d
       0.04888359 -0.026868017 -0.048925444 0.03441742
0002d0 4a e5 2b 3d b4 be 17 3d bf 5a 64 3d 09 3b 63 3d
       0.041966714 0.037047103 0.055750605 0.055476222
0002e0 a4 21 2b 3d e7 03 56 bb ce 5b 98 3a ab 57 aa bc
       0.04178013 -0.0032656135 0.001162404 -0.020793756
0002f0 93 75 0d bd d1 c2 5f 3d 8a e8 56 bd 0b d4 8e 3c
       -0.034535956 0.05462915 -0.05246786 0.017435094
000300 ec 32 67 bd 0a 8e 27 3d ed da 16 3d 4c c3 67 bb
       -0.056445047 0.040906943 0.036829878 -0.0035364209
000310 64 28 84 bc a6 d2 bb 3c da b7 f5 3c c6 b4 06 bd
       -0.016132541 0.022927593 0.029994894 -0.032887243
000320 d3 62 e3 bc e6 1f 31 3c 7e 94 c6 bc 9a 27 67 bd
       -0.027757084 0.010810828 -0.024240728 -0.05643425
000330 6b e0 e8 3c 2c b5 89 bb 97 ae d4 3b 67 f4 0e 3d
       0.028427323 -0.0042025056 0.0064905393 0.03490105
000340 91 9b b7 3c 4e ad ec 3c 41 7c 34 bd db 18 08 3d
       0.022413047 0.028891232 -0.04406381 0.03322683
000350 13 61 33 bd 06 08 0b 3d 60 ea f7 3c 0c c5 2d bd
       -0.04379375 0.0339432 0.030263126 -0.042424247
000360 7e 13 08 bd 44 c2 76 3d 46 09 aa 3c 87 d9 2c bd
       -0.033221714 0.06024386 0.020756375 -0.042199638
000370 a7 e3 67 bd 8e d8 2f 3c 3a 95 a0 bc b0 87 27 bc
       -0.05661359 0.010732783 -0.019602407 -0.0102252215
000380 e8 80 ac bc 18 ed 6f 3d 46 21 da bb 3a 95 4a 3c
       -0.021057561 0.05857572 -0.0066567985 0.01236468
000390 00 e1 06 3d e6 64 13 bd 25 f5 8e 3c 95 6b 26 bd
       0.03292942 -0.035984896 0.017450878 -0.040629942
0003a0 f7 fa e0 3c 2e ce 02 bc 69 46 35 bd 81 df 7d 3d
       0.02746342 -0.007983727 -0.0442566 0.061980728
0003b0 1d 32 5e 3d 06 ae 5c bd 00 55 33 3d 98 01 5f bc
       0.05424701 -0.0538769 0.043782234 -0.01361122
0003c0 c1 f2 32 3b 4e e2 30 bb 5e 1c 74 bd 6a e7 be bc
       0.0027305337 -0.0026990357 -0.059597366 -0.023303706
0003d0 9f d7 19 bd 31 23 19 3c 3f ec 35 bd e9 8c 60 3d
       -0.037559148 0.009346769 -0.044414755 0.054821882
0003e0 30 d8 64 3d 3e 2f 2b bc d2 e2 3d bd b8 73 de 3d
       0.055870235 -0.010448275 -0.04635889 0.10861915
0003f0 d9 ca 34 bd 95 ed 96 3d bd aa 05 bd 77 5e 3e bc
       -0.044138763 0.07369534 -0.03263353 -0.011619202

dense2.bias f4 [10]
000000 65 d6 6a 3a 74 c7 1d 3d 71 89 0e bd 4b 4c 01 bd
       0.0008958339 0.03852029 -0.034799043 -0.0315669
000010 95 0a f7 bb 76 db 80 bd b4 cd 12 bd 61 96 a5 3c
       -0.0075391033 -0.06291859 -0.035840705 0.020213308
000020 a6 7a 73 3d 0c e2 4a 3d
       0.05944314 0.04953198

decode.weight f4 [784, 10]
000000 07 16 7d 3e 32 8a a4 3e 8c 50 91 be 5a ef a1 3e
       0.24715434 0.32136685 -0.28381765 0.31627923
000010 f5 11 8b bd b1 20 1a be bc df f8 bd 30 5c d0 3e
       -0.067905344 -0.15051533 -0.12152049 0.40695333
000020 1c 0f 21 3e be f8 9d bd 52 5c 43 be af 81 a4 3e
       0.1572842 -0.077134594 -0.19078186 0.3213019
000030 41 38 50 bc 62 61 63 3e 17 0e d9 3e f3 d6 08 be
       -0.0127087245 0.22205117 0.42393562 -0.13363247
000040 49 a9 97 be 87 55 4b 3e 36 49 cc 3e 9e 3e 37 3e
       -0.29621342 0.19856845 0.39899606 0.1789498
000050 a8 c8 fb bd 86 58 bf 3e 83 2b 5a 3e 98 12 d7 3d
       -0.122941315 0.37372226 0.21305661 0.10501593
000060 3f c4 ac 3e d5 ba 98 be 6e 19 c3 bd b3 0a ba 3e
       0.33743474 -0.29830042 -0.09526335 0.36336288
000070 22 63 ae 3e 1c a5 83 3e 3a 59 84 b9 4c 32 d2 3e
       0.34060007 0.25711906 -0.0002524348 0.41053998
000080 7c 16 84 be 51 92 8e be 57 cf 8d 3e 7f a0 d9 bd
       -0.25798404 -0.27846006 0.2769725 -0.10626315
000090 c6 85 37 be 7a 20 ae 3e 99 f3 16 3e 72 25 a0 3d
       -0.17922124 0.34009153 0.14741363 0.07819642
0000a0 bf b5 60 be 22 3f ab 3e fb 71 96 be 06 73 b8 bb
       -0.2194433 0.33446604 -0.29383835 -0.0056289462
0000b0 64 7b 99 bd 7d 2a bf be 34 ee 91 be 1a 04 1d 3d
       -0.07494238 -0.37337103 -0.28502047 0.03833399
0000c0 b5 94 81 3e 7e c5 6c 3e f6 16 25 be 64 5d 67 3e
       0.25308767 0.23122212 -0.1612204 0.2259422
0000d0 07 91 aa be f0 69 ef 3d 5e 78 9d 3e 18 24 ce be
       -0.33313772 0.11690128 0.30755895 -0.40261912
0000e0 d9 88 9d be f1 b0 73 3e a0 47 d0 bd f3 7f b5 bc
       -0.3076847 0.23797967 -0.101699114 -0.022155738
0000f0 32 65 5f 3e 11 ff 44 3e 5e 1c c5 be b7 45 9f 3e
       0.21815947 0.19237925 -0.38498205 0.31107876
000100 2a 2e 5c bd 6e 54 1b 3d 1e 5e ad bd 48 9f e7 3e
       -0.053754963 0.037922315 -0.08465217 0.4523871
000110 ab 2a 43 3e 34 3c cd 3e e3 27 49 3e 89 c0 f1 3e
       0.19059245 0.40084994 0.19644122 0.47217205
000120 a9 6a 41 be 04 70 0a bd bc fd d3 3e 2f 0b 47 be
       -0.18888344 -0.033798233 0.4140452 -0.1943786
000130 1f d8 1b 3e 0a cf de bd 91 bb 9d 3e c7 1f ab 3e
       0.15219162 -0.10879333 0.30807164 0.33422682
000140 83 a8 80 3c e7 64 f7 3e 4e 25 ab 3d 1b b6 22 be
       0.015705353 0.4831917 0.08356725 -0.1588978
000150 12 d8 75 3e 6d e7 50 be af 2f 6f 3d 76 70 a9 3e
       0.24008206 -0.20400782 0.058395084 0.33093613
000160 72 65 c5 3e 05 32 da 3d 53 c1 cc bd f1 98 c3 3d
       0.3855396 0.10654072 -0.09997811 0.09550656
000170 1b 84 fc be 4b 93 0d be 12 b3 69 3d 12 c9 bb be
       -0.49319538 -0.13825719 0.05705554 -0.36676842
000180 9f ac 55 be 0f c9 8a 3e f4 a5 1f bd 6b 1b 63 3e
       -0.20866631 0.2710652 -0.038976625 0.22178428
000190 34 78 70 be 29 15 be 3d 8b 62 1b 3e 5c 57 8f be
       -0.23483354 0.0928138 0.1517431 -0.27996337
0001a0 ff 4c 6b 3e 7e 06 a3 bd 04 1a 83 3c b9 65 2e 3e
       0.2297859 -0.07960223 0.016003616 0.17030992
0001b0 3b ad 55 3d f0 d7 87 3e aa aa 52 be bd 65 ce bd
       0.05216716 0.26531935 -0.20572916 -0.10077999
0001c0 b6 3d 47 3e a7 56 71 3e 4c b5 22 3e da 8a 00 3e
       0.19457135 0.23568211 0.15889472 0.12552968
0001d0 be a2 15 3e 6c 4a 8e 3e 66 53 6f be 08 67 49 be
       0.14612862 0.27791154 -0.23371658 -0.1966821
0001e0 7c d0 7f 3e 31 fb 45 3e 3a 72 09 3e 10 6e 00 3e
       0.24981874 0.19334103 0.1342248 0.12541986
0001f0 8c 73 19 bd f1 82 40 be 4f dc 82 be e0 57 38 3e
       -0.03746371 -0.1879995 -0.25558707 0.18002272
000200 a7 db 8c be 0b bd 1e 3e 1b 57 01 bd 06 19 9b be
       -0.2751133 0.15501802 -0.03157721 -0.3029253
000210 f4 6a dc bd 5d da 0b be 8f 7e dd 3d 17 df 85 3d
       -0.10762587 -0.13657518 0.10815155 0.06536692
000220 bd a8 6f 3d 2f 9d 97 3e 65 ae 5f be d7 e7 6c be
       0.05851053 0.2961211 -0.2184387 -0.23135315
000230 c0 08 52 3e 08 03 e1 3c 52 19 55 3d 3d 58 94 3e
       0.2051115 0.027467266 0.0520261 0.2897357
000240 12 b6 a0 3e eb 3b 09 be 5f f6 92 3d be f9 9d 3e
       0.3138891 -0.13401763 0.07175898 0.308546
000250 32 10 8c be f0 2f 8c be e6 ca 03 be ae 49 e6 3d
       -0.27356106 -0.27380323 -0.12870368 0.11244522
000260 b6 05 33 bd 0c 98 78 bc 95 8b 81 be b9 3b 98 be
       -0.04370662 -0.01517297 -0.25301805 -0.29733065
000270 28 2f 13 3c ce b1 81 be 14 48 c5 3b 16 50 35 3e
       0.008983411 -0.25330967 0.0060205553 0.17706332
000280 a8 76 8a bd cf ea 45 bd 1d 23 c8 bd 06 d9 ab 3d
       -0.06760913 -0.048319634 -0.09772322 0.08391003
000290 cf a1 73 be ec 4f 54 3e b4 22 bd 3d b8 5b 9c 3d
       -0.23792194 0.20733613 0.09235135 0.076346815
0002a0 6e d9 5e 3d fd 57 9f 3e 76 29 32 be ed 41 31 3d
       0.054406576 0.31121817 -0.17398629 0.043275762
0002b0 ae 84 71 3e 3c 3d a2 3d d4 50 62 3d 40 ba ce bd
       0.2358577 0.07921836 0.055252865 -0.10094118
0002c0 df f5 9c 3e 4d 7f 31 bc 87 03 81 3e d2 f6 84 be
       0.30656335 -0.0108335735 0.25198004 -0.2596956
0002d0 4a a1 51 be 90 f8 61 be 84 1a 48 bd 4f a9 6b 3d
       -0.20471683 -0.22067475 -0.048853412 0.057534512
0002e0 58 27 03 3d 6a 07 3a be 12 c4 82 3e ba 63 e3 bd
       0.032019943 -0.1816689 0.25540215 -0.11103006
0002f0 0d 52 8f bc ba b6 9e 3e 8a 9a 93 3d 3c 68 62 be
       -0.01749518 0.30998784 0.0720721 -0.22110075
000300 6e 4c 6b bd 14 8d 85 be 1d c6 98 3e 34 39 ef bc
       -0.057445936 -0.26084197 0.29838648 -0.029202081
000310 6a 87 85 3e b5 9a 8c 3e 1a 68 93 be 21 85 89 3e
       0.26079875 0.27461782 -0.2879036 0.26859382
000320 76 85 27 be d7 67 9d be ef c5 9f 3e ac 46 38 3d
       -0.16359505 -0.30743286 0.312057 0.044989273
000330 77 d1 43 3e 42 9b d6 3d 7c 6f 46 3e 52 36 81 3d
       0.19122873 0.10478832 0.19378465 0.06309189
000340 01 b9 07 3e 23 53 36 be ef af 8e 3d 3a 5f d6 3c
       0.13254167 -0.17805152 0.069671504 0.026168454
000350 cd 6a 75 be 4e b1 84 be cf 1d ad bd b0 53 d3 bd
       -0.23966523 -0.25916523 -0.08452951 -0.103186965
000360 8e eb 1e 3e 9a 14 8a be a7 2d 98 3e 9b 79 8f be
       0.15519544 -0.26968843 0.2972233 -0.28022465
000370 71 05 95 be e6 ff 14 be 68 4c 32 be 56 fe 51 bd
       -0.29105714 -0.14550743 -0.17411959 -0.051267944
000380 a1 88 9c be 62 6d 1b be 1a 42 7f 3e ab 2c 7c bc
       -0.3057299 -0.15178445 0.2492756 -0.015391509
000390 d1 20 a8 bc eb d2 16 be 94 59 10 bd 32 5c 11 3e
       -0.02052346 -0.14728896 -0.03524168 0.14195326
0003a0 40 6a b6 bc c6 97 77 be 1e ce 50 be fc b0 99 be
       -0.02226746 -0.2417899 -0.20391127 -0.3001784
0003b0 28 c8 74 be 81 f6 76 be b0 58 62 be 24 a9 56 bc
       -0.23904479 -0.24117471 -0.22104144 -0.01310185
0003c0 42 16 09 be 68 eb 89 be 7d 74 c0 bd 37 1c 82 3d
       -0.13387397 -0.26937413 -0.093972184 0.06353038
0003d0 c2 c8 00 3d 42 6f 85 3e 95 ce d3 3d 32 d4 93 3e
       0.031441458 0.26061445 0.10342137 0.2887283
0003e0 90 36 9d be 1e f8 4a be 4c 8d 99 3e b0 8c 77 3e
       -0.3070569 -0.19821212 0.29990613 0.24174762
0003f0 ee 58 75 3e c9 ea 35 3e e5 53 b1 3d 14 dc e9 3d
       0.23959705 0.17765345 0.0865858 0.1141893

decode.bias f4 [784]
000000 51 af 8f 3e d1 c6 81 3e 0c 82 2f 3d 13 92 6c be
       0.28063443 0.25346997 0.04284863 -0.23102598
000010 17 48 a5 3d 15 60 0a 3e 54 d5 b2 3d 03 f2 87 bd
       0.08070391 0.13513215 0.08732095 -0.06637957
000020 23 bc a8 3e 07 64 7b bd b3 5c 81 bd 2b d9 93 be
       0.32956037 -0.06137469 -0.06316509 -0.28876624
000030 de a8 70 be 28 bf 5d be 7c 0c 47 3e 89 3e ea bd
       -0.23501918 -0.21654952 0.19438356 -0.11437709
000040 65 06 12 3e 40 2d 08 3e 4a 6e 2d 3e eb b4 c6 bd
       0.14260252 0.13298512 0.16936603 -0.09702476
000050 53 f8 e9 3d 80 76 67 bd 09 89 42 3e cd 30 87 be
       0.11424317 -0.056509495 0.18997587 -0.2640442
000060 fc a8 90 be 72 39 59 3e 70 97 39 bd ac c0 dc 3c
       -0.28253925 0.2121332 -0.045310438 0.026947342
000070 37 39 81 bc 15 e7 97 bd 83 0e 89 3b d3 ba 81 3e
       -0.015774352 -0.07417122 0.004182638 0.25337848
000080 ea 01 39 bd 3e 96 c9 3c 86 a5 85 be 39 05 9c be
       -0.04516784 0.024607774 -0.26102847 -0.30472735
000090 4f 7e 8d 3d dc da 98 be 8b 17 7a bc e6 44 b4 bd
       0.06908857 -0.29854476 -0.015264402 -0.08802204
0000a0 2d e4 fc bc e5 b7 9c 3e 75 12 3c bd df 1e 0e 3e
       -0.030870521 0.3060905 -0.04591604 0.13878964
0000b0 7e 65 81 be 0e 7b 91 bd 6b 5f 9a 3e 16 18 c2 3d
       -0.25272745 -0.07103549 0.30150923 0.0947725
0000c0 c7 76 f5 bc 1f 5e 59 be a4 07 af 3d b2 52 81 3e
       -0.029963864 -0.2122731 0.08546379 0.25258404
0000d0 56 d6 cc bd be a1 5b be de 65 5b 3e 50 dd 63 3e
       -0.10001819 -0.21448418 0.21425578 0.22252393
0000e0 d9 fc 5c be 38 b1 11 3e 4b 88 91 3d e7 db 53 bd
       -0.21580829 0.1422776 0.07106074 -0.051723387
0000f0 78 c7 50 3e 74 8e 4e 3d d7 31 db 3d 50 8f 6b 3e
       0.20388591 0.050428823 0.107028656 0.23003888
000100 64 df 6e 3e 93 4b 2e be 1a e6 9d 3d 93 c3 d7 bd
       0.23327404 -0.17021017 0.07709904 -0.1053535
000110 65 41 17 3e cf a1 58 be 30 17 af bd e7 1d ed bd
       0.1477104 -0.21155475 -0.085493445 -0.11577969
000120 ec fc d9 3d be b5 8d 3e a8 3e 48 be ad e1 28 be
       0.10643944 0.2767772 -0.19555151 -0.16492338
000130 4d 19 2f 3e 3d 1e 12 be 82 15 e8 bd 1f a6 2c bd
       0.17099495 -0.14269347 -0.11332227 -0.042150613
000140 a3 14 92 3d db 2b 5d 3e 71 25 79 be 6f aa 15 3e
       0.071328424 0.21598761 -0.24330689 0.14615797
000150 b8 64 2e be eb 6a b9 3d 0a 42 0c be a6 31 09 3d
       -0.17030609 0.09053596 -0.13697067 0.033494614
000160 43 f4 36 3e 7f 37 4f 3d b7 6c c7 bd 44 cb 60 bd
       0.17866616 0.050590035 -0.097375326 -0.05488135
000170 ed c8 82 3d 75 b4 7a bc d4 4c 5b bc 3b 89 c7 3c
       0.0638598 -0.015301813 -0.0133850165 0.024357429
000180 b1 01 c9 3d 7b 8b 39 bd d1 7c 3d be e0 38 7e 3e
       0.09814776 -0.045299035 -0.18504645 0.24826384
000190 25 6b 78 bc e2 78 e3 3d ff 18 37 bd 24 cd f7 bd
       -0.015162264 0.11107041 -0.044701573 -0.12099674
0001a0 9b fc 1d 3e 9e e6 bd 3d 5f a9 02 3e e1 28 fd bd
       0.15428393 0.09272502 0.12759922 -0.12361313
0001b0 75 49 22 be d6 a7 5c bd 46 4b 04 3d e4 f1 21 be
       -0.15848334 -0.053871 0.03229835 -0.1581493
0001c0 ee 8e 64 be 93 79 c6 3d 96 5a 96 bb 56 b3 91 3d
       -0.22320148 0.09691157 -0.0045884354 0.07114284
0001d0 b8 c0 ce 3a 70 33 5e 3e bf 11 c4 3d 8e e4 64 be
       0.0015773987 0.2169931 0.09573697 -0.22352812
0001e0 92 b8 97 3c c6 af 7a be 1f 6c 9e be 95 d1 83 be
       0.018520627 -0.24481115 -0.30941865 -0.25745836
0001f0 eb fc 9c be ab 34 67 be af 2b 88 3e a8 88 4b 3e
       -0.3066171 -0.22578685 0.26595828 0.19876349
000200 0b ec 05 3e d9 7e 63 3e 97 7d c0 3d d0 00 10 3b
       0.13078324 0.22216357 0.09398954 0.002197314
000210 ce 5d 2b 3e bc 86 29 be 69 8a 1b bd dd 3b fa bd
       0.16735002 -0.16555303 -0.037973795 -0.12218449
000220 7a a0 8e 3d ed b3 80 be 5a 2a 12 3e 4b 8b 05 be
       0.06964202 -0.25137272 0.14273968 -0.13041417
000230 63 ae ad bd 7a 80 48 be 1e ec 99 be 83 02 49 be
       -0.08480527 -0.1958026 -0.30062956 -0.19629864
000240 f9 ef e2 bd d4 f4 35 be 12 32 34 3e 48 3a b1 3d
       -0.110809274 -0.17769176 0.17597225 0.086536944
000250 13 36 08 bb b0 cc 26 be 54 0b 59 3e 41 44 3f be
       -0.0020784184 -0.1628902 0.21195728 -0.1867838
000260 1e 46 68 3e 4f 03 9d 3d 7e 6c 53 3e 4f 6d 07 3d
       0.22682998 0.07666647 0.20646855 0.03306323
000270 f3 e7 fc bd b8 ca cd bd 48 75 88 be d4 f2 7c be
       -0.12348928 -0.10048431 -0.26651978 -0.24702007
000280 f9 16 52 be 8f 57 eb bd 30 92 b9 bd cb c3 8e 3e
       -0.20516576 -0.1149131 -0.09061086 0.27883753
000290 db 57 10 3e d3 1f 8c be 92 12 18 3e 7c 85 a5 3d
       0.14096014 -0.2736803 0.14850834 0.08082101
0002a0 9d 55 88 3e 59 93 6e be 5c 85 0e bd 71 4a 49 3d
       0.26627818 -0.23298396 -0.03479515 0.04914326
0002b0 e0 83 84 3e 48 ca ef bd 0a cb 91 3e 3c d0 51 be
       0.25881863 -0.11708504 0.2847522 -0.20489591
0002c0 ef 45 8a 3e 8e 39 c2 bd 96 b2 6d bd 5f 80 6c 3e
       0.2700648 -0.09483634 -0.05803164 0.23095845
0002d0 38 c0 6e bd 97 8e 8d be d1 44 82 3e 4c 7f 0c be
       -0.058288783 -0.2764785 0.25443128 -0.13720435
0002e0 d1 5c 86 3d 89 c1 61 bd 4c 14 6c bc 76 0a 65 3d
       0.06560672 -0.05511621 -0.014409136 0.05591818
0002f0 53 1f 00 bc 17 cb 77 be de 5d b2 bc 1c 5c e3 3c
       -0.007819968 -0.24198566 -0.021773275 0.027753882
000300 f1 6a 6e 3e b1 80 ca bb 27 2c 3c bd 53 d2 9c 3d
       0.23282982 -0.006179892 -0.045940544 0.07657304
000310 3e 32 5a 3e 9e 5e 33 be 1d ca 3d 3d 8e be 97 3e
       0.21308228 -0.17516562 0.04633533 0.2963757
000320 53 e8 93 be 42 d2 8d be 20 52 d9 3b a4 73 19 be
       -0.28888187 -0.27699476 0.0066321045 -0.1498552
000330 b5 9c 06 3e 41 01 7f 3e e9 75 07 be fd 2f f5 bd
       0.13145716 0.24902822 -0.13228573 -0.11972044
000340 07 04 79 be 97 af 6a be df fa ef bd 4f 96 56 be
       -0.24317943 -0.22918545 -0.11717772 -0.20955776
000350 a5 05 4a 3e 78 1b 9e bc 89 55 d3 bd f6 ba 69 be
       0.19728716 -0.019300207 -0.10319049 -0.22825226
000360 b5 68 09 be 2a 29 9b be 27 1c 5f be 84 fb 86 be
       -0.13418849 -0.30304843 -0.21788083 -0.26363766
000370 f2 26 cf 3a ce 40 9f bc cb 2f 95 be f4 0a 99 3d
       0.0015804453 -0.019440081 -0.29138026 0.07472792
000380 a2 20 c6 3d a6 f1 d7 3d 1f 40 8f 3d 83 db 1f 3e
       0.09674193 0.10544138 0.06994652 0.15611081
000390 1d f6 18 be be 73 19 bd 5f c6 42 3c e7 62 74 3e
       -0.14937635 -0.037463896 0.011888116 0.23865853
0003a0 c6 cb 5b 3e 68 85 ce bd 2b 06 16 be 87 42 45 be
       0.21464452 -0.10084039 -0.1465079 -0.1926366
0003b0 ea b2 79 3e a8 88 d0 bd 3b b2 1a 3d a9 0c a1 3e
       0.24384657 -0.10182315 0.03776763 0.3145497
0003c0 9a ed 5d be 74 44 db 3d 5b ac 08 be e8 9c 45 3e
       -0.21672669 0.10706416 -0.13346998 0.19298136
0003d0 40 5e f5 bd fd 3c c4 3c 7a 21 53 3e b2 35 fc bd
       -0.119808674 0.023954863 0.20618239 -0.12314929
0003e0 41 b2 82 bc ae e4 8b 3e 72 8c 86 3d 1e b8 70 3d
       -0.015954139 0.27322906 0.065697566 0.058769338
0003f0 89 25 7f be 7f 9e 29 3e 8c e0 e0 bd cb cf 0a be
       -0.24916662 0.16564368 -0.10980329 -0.13555829
