labs/model.pth (torch, 86031 bytes, 8 tensors)

dense1.weight f4 [100, 4]
000000 7c 60 cc 3b 3b 2b e0 bc 9d 98 98 3e 7f 00 0c bd
       0.006237088 -0.027364364 0.29803935 -0.03418016
000010 7f 15 f6 3d e2 38 af bc 02 a9 04 bf cd e1 1a be
       0.12015819 -0.021389429 -0.51820385 -0.15125199
000020 94 aa 2b be 6a aa 71 3c f7 95 16 bf 27 c0 31 bd
       -0.16764289 0.014750103 -0.5882258 -0.04339614
000030 b8 ab 7e 3e 06 6b 93 bd 46 56 5d bd 57 ab f7 bc
       0.24870193 -0.071981475 -0.054037355 -0.030233068
000040 3d 9f 01 3e 5f 01 88 bd 7b c3 c3 be 8d 25 d7 bd
       0.12658401 -0.066408865 -0.38235077 -0.10505209
000050 a7 e0 22 3e 91 ed dc 3e 58 f9 98 3f 17 5c 96 3e
       0.1590601 0.4315 1.1951094 0.29367134
000060 88 63 e0 3c 86 4e c7 3b a0 9a 05 3f 66 cd 15 bd
       0.02739121 0.006082359 0.52189064 -0.036572836
000070 b0 72 f9 3d e5 f2 4a 3d 6a e5 86 be 46 8b 30 3d
       0.12180078 0.04954805 -0.26346904 0.04310157
000080 39 83 f7 3c 98 23 44 bd db 83 02 bf 34 19 80 bd
       0.030213939 -0.047885507 -0.50982445 -0.06254807
000090 1c 2c 93 be 02 cf 8f be 5f 85 30 3e c8 a8 88 bd
       -0.2874459 -0.28087622 0.17238377 -0.066728175
0000a0 2f f5 b1 bb 37 5d 86 3c a0 ce 04 c0 22 51 4a be
       -0.0054308395 0.01640187 -2.0751114 -0.19757512
0000b0 d4 a8 6a be 18 f7 0d bd e8 33 b9 be 34 21 e6 bc
       -0.22915965 -0.034659475 -0.36172414 -0.028092004
0000c0 86 53 85 3c 4a 1a d4 3d 6f cd 07 3f 34 50 9d 3e
       0.016275179 0.10356577 0.5304784 0.30725253
0000d0 4f 74 9d bd b7 ea 3c 3c 35 14 8b bf 5a bc 14 be
       -0.076882 0.01153057 -1.0865542 -0.14524975
0000e0 98 77 b2 3d 40 00 ce bd 22 e6 e6 3e ff a3 81 bd
       0.08714217 -0.100586414 0.45097452 -0.06330108
0000f0 99 b7 93 bc 28 d0 8b 3d 40 c8 f1 3d 3f 49 82 bd
       -0.018031882 0.06826812 0.11805773 -0.06361627
000100 a1 38 2b be fc 7b 84 3e d7 04 97 3e 5c 61 5e 3e
       -0.16720821 0.25875843 0.2949588 0.21716827
000110 3a dc 9b bd 7f 98 a5 3d ad b6 6b bd 23 60 20 3e
       -0.07610364 0.08085727 -0.05754726 0.15661673
000120 b5 20 a3 3d 65 c0 71 bd 36 34 84 3e d6 80 91 bc
       0.07965223 -0.059021372 0.25821084 -0.01776163
000130 97 8a 2f 3e 73 bd 03 be 4f 77 00 be 17 48 05 be
       0.17142712 -0.12865238 -0.12545513 -0.13015781
000140 67 5a 06 3f 9c 78 98 3e 76 17 ff 3e ba d9 3a 3e
       0.52481693 0.29779518 0.49822587 0.18247119
000150 13 c2 ab bc f6 48 a3 bb a0 4c 36 3f b9 bc b1 bb
       -0.020966565 -0.004983063 0.7121067 -0.005424109
000160 20 0f 02 bd 5f e6 aa 3d de 42 ed bd bf 13 de 3d
       -0.031752706 0.08344721 -0.115850195 0.1084361
000170 7f 8c 82 3e 09 66 e0 bc 35 93 5e be c4 b5 d6 bc
       0.25497815 -0.027392404 -0.21735843 -0.02620972
000180 72 ce 92 bb a5 8a e1 3d 60 b4 d6 be e2 d3 65 3d
       -0.0044801766 0.110127725 -0.4193449 0.05611027
000190 0f 81 33 3c df 18 03 3c 1c 84 0f bf 01 84 bf bc
       0.010956063 0.008001535 -0.5606096 -0.023378374
0001a0 0c bd 4e bd 37 3a f4 3d ff f4 8e 3f c8 17 93 3e
       -0.050473258 0.11925166 1.1168517 0.2872908
0001b0 76 9f 4b 3e d7 ed 2c be 0a 04 e6 be 83 1c a0 be
       0.19885048 -0.16887604 -0.44924957 -0.31271753
0001c0 3a d4 a7 3e bb d3 c0 bd 2e 66 2d 3f af 1d 39 3e
       0.32779104 -0.094153844 0.6773404 0.1807773
0001d0 5f 09 7c 3e f0 87 48 bd cb f0 da be c4 83 61 3c
       0.2461295 -0.048957765 -0.42761835 0.0137643255
0001e0 9d 16 c3 3c 1f 7e 59 bd 86 0d b0 bf ca 60 df bd
       0.023814494 -0.053098794 -1.3754127 -0.10907133
0001f0 f5 f9 d0 3e f0 52 a3 bc ff 08 ac 3e 8f c5 18 bd
       0.40815702 -0.019937009 0.33600613 -0.03729778
000200 46 0f 27 3e 7b f0 34 be 83 38 d8 be c6 c5 ef be
       0.1631442 -0.17669861 -0.42230615 -0.46830577
000210 a4 af 51 3d 7d f0 27 bd 6e 0c 58 3e 91 0f 10 be
       0.051192895 -0.041000832 0.21098492 -0.14068438
000220 55 bd 21 be bf fb f1 bd c7 ea 56 3d 55 28 5f be
       -0.1579488 -0.11815595 0.052469995 -0.21792729
000230 97 61 d9 3d b7 a3 e3 bd b2 73 ff bd fc 11 47 be
       0.10614317 -0.111152105 -0.12473239 -0.19440454
000240 72 a6 58 be 86 9d 8a 3e 4a 1a 69 3e 6c ca 4f 3e
       -0.21157244 0.27073306 0.22763935 0.20292062
000250 a8 ba 9d 3d 0c 60 46 bd f0 20 6a bd 50 99 f8 3c
       0.077016175 -0.04843144 -0.057160318 0.030346543
000260 9e 19 90 3e c1 30 4a b9 fe d3 e4 bd cd 62 15 bd
       0.28144544 -0.00019282383 -0.11173247 -0.036471177
000270 78 bc c3 bd 28 63 1b bd 80 f3 09 3f 58 d9 23 bd
       -0.09557432 -0.03793636 0.53887177 -0.040002197
000280 da 78 06 3e c8 3d e9 bd 6a 02 3d bf e2 d4 83 be
       0.13132039 -0.11388737 -0.7383181 -0.25748354
000290 1e bf 10 bd ce 76 93 3d e8 ad 7c be cb 53 bb 3d
       -0.035338514 0.072003946 -0.24675715 0.091468416
0002a0 b7 c8 4b 3e 1c a0 f9 bd 3a 03 93 bd d9 af 11 bc
       0.19900785 -0.121887416 -0.0717835 -0.008892023
0002b0 d9 56 df 3d 93 c8 df bd 49 9a 5a be a9 a1 a8 bd
       0.10905237 -0.10926928 -0.21347918 -0.08233959
0002c0 6e 7a 17 3c e7 a1 ed bc a6 c2 99 3e 91 e9 6d bc
       0.009245498 -0.029007865 0.30031317 -0.014521019
0002d0 6f 6d ab be 97 39 50 3c 0b f7 91 3a 46 f4 a2 3c
       -0.3348193 0.012709043 0.0011136247 0.01989187
0002e0 96 af 6f 3d 09 fc 33 bb 05 de 78 3f 90 88 67 3e
       0.05851706 -0.0027463457 0.97213775 0.22610688
0002f0 d2 62 7d 3d ba b6 2c be 2f 6d 12 be 91 3a 2c be
       0.06186182 -0.1686658 -0.14299463 -0.16819216
000300 a1 e4 b2 bd 08 07 a1 3d 10 e6 81 3f 12 cd 45 3e
       -0.08735014 0.07862669 1.0148335 0.1931651
000310 88 ea 8b bc 2f 74 52 3d 95 1d 85 3f af ba ab 3d
       -0.017079607 0.051380333 1.0399653 0.083852164
000320 ab 5a b2 3a 24 88 fe bb 3e d9 a4 bf 81 2e cb bd
       0.0013607343 -0.007767694 -1.2878797 -0.09920979
000330 1e 25 0b be 11 20 15 3e 33 c0 88 bd a1 42 1d 3e
       -0.13588378 0.14563014 -0.06677284 0.15357448
000340 9e 7d 74 3d e4 51 45 3d 44 36 00 40 2e ba 87 3e
       0.05969011 0.0481738 2.003312 0.2650923
000350 59 7f 3a 3d 62 41 75 bd 96 04 93 bd a8 9c 85 bd
       0.045531604 -0.059876807 -0.07178609 -0.065240204
000360 31 e4 dc bd a3 ae 07 3e e4 7d b2 3e 54 be a9 3d
       -0.107857116 0.13250212 0.34861672 0.08288255
000370 9f e8 d7 be 88 ce 5a 3c cc fc a0 3e 5b 0a b3 bb
       -0.42169663 0.013354905 0.3144287 -0.005463881
000380 56 8e f9 bd 6d 0f 01 3e 17 95 23 3e 86 7d 26 3e
       -0.121853516 0.1260354 0.15974842 0.16258821
000390 cf e2 bc 3d f0 ff a1 3d 50 d5 33 3e 60 72 5a 3e
       0.09222948 0.07910144 0.17561841 0.21332693
0003a0 b3 92 e4 3d 59 15 73 be 4d ca 51 bf db 6c d1 be
       0.11160793 -0.23738612 -0.8194931 -0.40903363
0003b0 e5 6e 12 be 78 62 46 3e 00 03 f5 3e 10 10 00 3e
       -0.14300115 0.193735 0.4785385 0.12506127
0003c0 ec 34 77 bc e1 92 5a 3d 15 e3 cb 3f 11 85 15 3e
       -0.015088301 0.05336273 1.5928675 0.14601542
0003d0 48 53 fe 3d ec 2c 93 be 51 f9 06 bf e6 c6 94 be
       0.124182284 -0.2874521 -0.52724177 -0.29057997
0003e0 54 ab 81 bd 74 93 b9 3d 69 e6 9a bc e3 d9 4c 3e
       -0.06331506 0.090613276 -0.018908696 0.20004992
0003f0 c5 b9 52 3d 0c 23 e0 bc fb e1 5e bf 12 01 01 bd
       0.051446695 -0.027360462 -0.8706357 -0.03149516

dense1.bias f4 [100]
000000 d7 c8 51 be 3e 9c 1d bf 91 1d 30 bf 58 96 30 bf
       -0.2048677 -0.6156653 -0.68795115 -0.68979406
000010 cb 9f ff be 37 d7 f6 be 8c a1 7f be cb eb 16 bf
       -0.499266 -0.4821107 -0.24963969 -0.5895354
000020 bf aa 92 be 6a cf 35 bf 9a c2 d3 be 27 b9 53 bf
       -0.28645894 -0.71019614 -0.41359407 -0.82704395
000030 9d cd 3a bf c9 0f 9a be 4e c1 bf be 1f 2d e2 be
       -0.7296999 -0.30090168 -0.37452167 -0.4417505
000040 d0 94 32 bf fa 75 fc be 3d 9c 86 be f4 fd f7 bd
       -0.6975832 -0.4930876 -0.26291075 -0.121089846
000050 bf 72 8e bf f0 23 a5 be 36 3b b7 be 6a 55 3a bf
       -1.1128768 -0.3225398 -0.35787362 -0.7278658
000060 34 e8 a0 be bc af b3 be 2a e7 93 be 09 f5 40 bf
       -0.31427157 -0.35095012 -0.28887302 -0.75373894
000070 d0 93 cd be 04 59 38 bf 61 1d 01 bf c7 2b 7f bf
       -0.40151834 -0.7201083 -0.50435454 -0.99676174
000080 10 0f 3d bf 71 e8 03 bf c8 4f 7a bf 20 b0 e5 be
       -0.7385111 -0.5152655 -0.97777987 -0.44860935
000090 2b da fe be 16 3c bb be 0e bf 4c bf 8f 45 da be
       -0.49775824 -0.3656928 -0.79979026 -0.42631194
0000a0 64 9d f3 be 36 77 7b be 5f c4 20 bf 8a 47 d9 be
       -0.47581017 -0.24557194 -0.6279964 -0.42437392
0000b0 42 3b 23 be 6f 93 54 bf eb 65 14 bf a4 d6 00 bf
       -0.15940574 -0.83037466 -0.57968014 -0.50327516
0000c0 05 4c 0d bf 1f 6d ed be 04 04 ee be b2 9d fd be
       -0.5519412 -0.46372315 -0.4648744 -0.49534374
0000d0 ef e5 e8 be 3b bb 31 be 94 43 fd be 29 03 41 bf
       -0.45487925 -0.17356579 -0.4946562 -0.75395447
0000e0 ad 98 ed be c3 92 40 bf d0 b9 5f bf 9a fc 07 bf
       -0.46405545 -0.7522394 -0.873929 -0.53119814
0000f0 03 29 10 bf a1 d7 0f bf b2 8c 12 bf d1 fc d4 be
       -0.5631258 -0.561884 -0.57245934 -0.41599134
000100 fe 64 3b bf a2 4a b2 be 25 aa 10 bf 73 0c 9d be
       -0.73200977 -0.34822565 -0.5650962 -0.3067356
000110 41 11 73 bf 32 00 1b bf e5 be 2c bf 08 4e 13 bf
       -0.949482 -0.60547173 -0.6747878 -0.5754094
000120 1c 9c 07 bf 7f 78 ed be 3a b0 15 bf 55 d0 ce be
       -0.5297258 -0.46380994 -0.58472025 -0.4039332
000130 00 f3 f6 be 92 78 21 bf 8c 60 aa be 5b ef 11 bf
       -0.4823227 -0.630746 -0.33276784 -0.5700585
000140 5d 88 ce be d2 da a6 be 3f 4b 50 bf 20 5e fb be
       -0.40338412 -0.32588822 -0.81364816 -0.4909525
000150 a9 d7 17 bf 43 82 53 bf d6 ba 57 be ba 23 ed be
       -0.59313446 -0.8262064 -0.21067366 -0.4631632
000160 f9 12 df be d1 f3 4a be c7 6b 12 bf 90 b6 13 bf
       -0.43569162 -0.19819571 -0.57195705 -0.57700443
000170 66 12 7d bf 49 ab fe be dc cf ef be 14 82 f3 be
       -0.988562 -0.49740055 -0.46838272 -0.4756018
000180 09 4d 32 bf 12 52 11 bf 76 f2 fa be c7 c5 03 bf
       -0.69648796 -0.56765854 -0.49013108 -0.5147366

dense2.weight f4 [100, 100]
000000 d9 d8 d3 3a 06 97 18 be d0 8b 31 bd 97 ee 9e bd
       0.0016162648 -0.14901361 -0.043346226 -0.07760351
000010 d1 28 77 bc 8c b7 b8 3d 1c 1a 14 be e4 ca a3 bd
       -0.015085415 0.09019384 -0.14463085 -0.07997683
000020 e0 38 64 be d5 d6 ce 3d e4 fe c8 bd 66 af c0 3d
       -0.22287321 0.1009957 -0.098142415 0.094084546
000030 dc 3d de 3d 37 07 53 bd f4 f9 c0 bd 2e 59 15 be
       0.108516425 -0.051520552 -0.09422675 -0.145848
000040 9e 33 a4 3d 3f 90 e1 bd 41 96 19 bd be f0 9d bd
       0.08017658 -0.11013841 -0.03749681 -0.077119336
000050 6e eb d1 bc c2 45 1b 3e 69 5f 46 be 43 48 d6 bb
       -0.025624957 0.15163329 -0.19372334 -0.006539376
000060 04 2d 02 3c ac 01 7f 3b 53 dd 11 be cc 67 60 be
       0.007945303 0.0038910909 -0.14244585 -0.21914595
000070 95 46 56 be 3b 44 e2 bc 5f 74 fb bc 48 c9 70 3d
       -0.20925362 -0.027620425 -0.030695138 0.058785707
000080 26 06 a9 3d cf d8 1e be 07 28 ff 3c a9 31 c6 bd
       0.08253126 -0.15512393 0.031147016 -0.09677441
000090 a1 de 5e 3d 00 8f f4 bb 84 14 5b bd 42 b8 4b 3e
       0.054411534 -0.007463336 -0.053486362 0.19894508
0000a0 57 ef a0 3c e3 0f 0e be b0 1b f6 bc 20 aa d6 bb
       0.019645376 -0.13873248 -0.0300425 -0.006551042
0000b0 de 27 1a bc 19 fc a1 bc 18 04 e7 bc ef d7 5e 3c
       -0.009408919 -0.01977353 -0.028200194 0.013601287
0000c0 3d 52 1d bc 11 b6 be 3c e9 51 d4 bd d8 58 32 3d
       -0.009602127 0.023280175 -0.103671856 0.04354176
0000d0 01 22 c7 bd 8e 01 3c be e2 9c 15 be 14 54 81 bd
       -0.097232826 -0.18359968 -0.14610627 -0.06314865
0000e0 20 81 d1 bd 5a c2 0f be f1 af b7 3c d9 bc f3 bd
       -0.10229707 -0.14038983 0.022422763 -0.11901254
0000f0 6c c5 72 bd 94 ca 0a be 14 b3 b9 bd a6 92 01 be
       -0.059270307 -0.1355384 -0.090673596 -0.12653598
000100 f8 7b f3 3c 12 a3 88 bd d8 d4 02 be 96 08 14 3d
       0.029722199 -0.06671728 -0.12776506 0.036141
000110 c0 b8 e0 3d 40 5d f4 bd 3d 45 f4 3d b9 47 bf bd
       0.10972738 -0.119318485 0.11927269 -0.09339852
000120 e2 91 de 3d aa 64 a9 bd 10 4f a4 3c 61 d9 14 be
       0.10867669 -0.08271153 0.020057231 -0.14536048
000130 93 18 9c bd 68 91 8e 3c 17 71 17 be 07 57 e3 bd
       -0.07621875 0.01740332 -0.14789234 -0.111005835
000140 a8 44 3a be fe c9 6d bd a5 4f 38 be 9c bb aa 38
       -0.18190253 -0.058053963 -0.17999132 8.141177e-05
000150 05 87 ca bd 58 65 12 be 8e 1f d0 3d a2 c5 ff bd
       -0.09889034 -0.14296472 0.101622686 -0.12488867
000160 a7 46 0f bc 80 84 c3 3d 7a 3d 39 bd c8 6f ee 3d
       -0.008744872 0.09546757 -0.045224644 0.11642414
000170 6f 9f d5 3c 5a 5d c8 bd 4a a8 19 3e fe af f6 bd
       0.026077 -0.097834304 0.15005603 -0.120452866
000180 99 a3 3a bd d4 95 f7 3d eb 18 29 bd 81 38 26 be
       -0.045566175 0.12089124 -0.04128353 -0.16232492
000190 8b 97 61 3d ab a7 c1 bd 59 6e fc 3b 24 e3 f5 bd
       0.055076163 -0.09455808 0.007703584 -0.12006214
0001a0 33 6b 0e be c8 2b d2 3d 46 7a b7 3d 8a 8b c5 3d
       -0.13908081 0.10262257 0.08958869 0.096457556
0001b0 2d 4e 27 be 69 22 82 3d 48 24 d8 bd c5 03 1b be
       -0.16338415 0.063542195 -0.10553795 -0.15138157
0001c0 ea 0d 1f 3d 51 6c a5 3b 5b b3 f2 bd f2 01 20 be
       0.03883163 0.0050483127 -0.118506156 -0.15625742
0001d0 6d 02 d5 bd bb 55 b9 bd 35 1b 04 3c b4 f0 27 3d
       -0.10400853 -0.09049555 0.008063127 0.041001037
0001e0 88 19 45 bc c6 80 df 3d 51 f7 1d 3d 62 12 9f 3d
       -0.012030013 0.109132335 0.038565937 0.07767178
0001f0 9a 0a 20 bd 3e 91 15 3e e7 da 90 bc 84 9e d6 bd
       -0.03907261 0.14606187 -0.017682506 -0.10479453
000200 6d 4f 97 bd 36 08 c4 3d 75 78 99 be 9d f9 52 bc
       -0.07388196 0.095718786 -0.29974714 -0.012876895
000210 a8 f1 9f bd d4 b6 82 bc 3c b2 66 3d fa 48 73 bc
       -0.07809764 -0.01595632 0.05632232 -0.014848942
000220 2b eb d8 3c fc 5a 74 bd f8 7d 11 3e 0e 53 ef bd
       0.026479324 -0.059657082 0.1420821 -0.11685763
000230 20 47 97 bd c7 52 0a 3e 88 e8 ef bc b2 ab ea 3d
       -0.07386613 0.1350814 -0.029285684 0.114585295
000240 d4 56 6b 3d 52 1e 49 bc 77 37 56 be 80 7c 37 bd
       0.057455853 -0.012275295 -0.20919596 -0.044796467
000250 a0 0e ea 3d eb 75 92 3d 1d 5b b7 bd b8 6f b6 bc
       0.11428571 0.07151397 -0.08952925 -0.022270069
000260 2f ef 5f be 46 28 42 3d 57 b0 fb 3d 5c ff de bd
       -0.21868585 0.04740169 0.122894935 -0.1088855
000270 29 73 e7 bd 46 9f 18 be a0 ff 03 bd 28 ca 3a be
       -0.11301262 -0.14904508 -0.032226205 -0.18241179
000280 26 30 bc 3c d1 e5 62 be 26 23 c4 bd 03 26 43 be
       0.022972178 -0.2215798 -0.095770165 -0.19057469
000290 7a f2 e2 3d f2 4c bd bc 76 bc 0a bd 06 1a e4 3d
       0.11081405 -0.02310798 -0.033871137 0.11137776
0002a0 d7 a9 02 bd 00 4a 56 be d0 27 34 3d 71 29 15 be
       -0.031900253 -0.20926666 0.04398328 -0.1456659
0002b0 4f 61 72 bd 4a 34 41 3e 80 6a ea bc e6 38 ae 3d
       -0.059174832 0.18867603 -0.028615236 0.08506946
0002c0 e7 80 76 be 15 48 93 3c d0 02 1b 3c 8d f3 0e be
       -0.2407261 0.017978707 0.00946112 -0.13960095
0002d0 54 48 86 3d 68 4c ba bd 99 2b d6 bd 81 14 20 be
       0.06556764 -0.090966046 -0.10457534 -0.15632822
0002e0 f7 05 a7 bd ac 62 7f 3c d4 d9 fc bb cf e3 10 be
       -0.081554346 0.01558749 -0.007716397 -0.14149402
0002f0 e4 b8 9e bd 70 f7 c4 3d 7b d5 3d be fe 19 5b bd
       -0.07750109 0.096175075 -0.18538468 -0.053491585
000300 95 b9 d6 3c bc 1c 5d 3d 98 e1 1f bd cf ca e9 bd
       0.02621154 0.05398248 -0.039033502 -0.11415636
000310 b9 fe 08 bc a0 74 cc bc 38 b5 0e bd 77 5a 1e 3b
       -0.008361512 -0.024957955 -0.034840792 0.0024162808
000320 ae 17 1b be 06 46 f6 bb 9f 27 c3 bd 0e 43 fd ba
       -0.15145752 -0.0075156717 -0.095290415 -0.0019322352
000330 15 90 87 bd bc 43 fe 3c 4d 39 b3 3d df 0a eb bd
       -0.06619278 0.031038158 0.08751164 -0.11476683
000340 36 ba be bd 26 13 81 bd 26 1d 51 be 25 2b d8 bd
       -0.09312861 -0.063024804 -0.20421275 -0.10555104
000350 9a 88 9b bd e4 3a 99 bd 8e c9 49 3e aa ab 28 be
       -0.07594414 -0.074819356 0.19705793 -0.16471735
000360 f0 61 e1 bd 70 b2 26 be 86 fc 4b be 7a 11 0a 3d
       -0.11005008 -0.16279006 -0.19920549 0.033708073
000370 f3 ce 2d 3d 64 81 8c be 3a a5 da bd 47 fc 18 3d
       0.04243369 -0.27442467 -0.10676046 0.037349965
000380 fd 1c bd 3d 3a 13 82 3e 04 ee 04 3d 5e f3 cd 3d
       0.09234045 0.25405294 0.032453552 0.10056184
000390 3a 31 01 be 2e 5d 82 3c be 74 75 3d 6c a2 75 bd
       -0.12616435 0.015913572 0.059925787 -0.05996935
0003a0 01 f8 5d 3d 36 f6 1f 3d 8a 1f b9 bd 8e 57 ec 3c
       0.054191593 0.039053164 -0.09039219 0.028850343
0003b0 f7 21 29 be 80 8b 37 bb ba 59 2f 3d 80 8c 81 be
       -0.16516863 -0.0028006732 0.04281018 -0.25302505
0003c0 92 36 09 be 84 b9 10 3e 2c d2 6e 3d ff 7d 92 3c
       -0.13399723 0.14133269 0.058305904 0.017882345
0003d0 84 d6 c5 3d 94 77 f7 bd b8 e7 47 bb e0 3b 02 be
       0.09660056 -0.120833546 -0.0030503105 -0.12718153
0003e0 ba 76 6b bd 5c bc e3 3d 9b 7e 5c 3e 82 87 0b be
       -0.057486273 0.11119911 0.21532671 -0.13625911
0003f0 1b 2c 42 be 2b cf dc bd 10 62 05 be 32 c5 79 be
       -0.18962137 -0.10781702 -0.13025689 -0.2439163

dense2.bias f4 [100]
000000 e0 7f 3e be d8 bb 27 be 75 65 ea bd c1 e8 88 be
       -0.18603468 -0.1638025 -0.11445133 -0.26740077
000010 dd bd f7 bd dc f9 94 be 0f ec ca be 09 db 01 be
       -0.120967604 -0.29096878 -0.39633223 -0.12681212
000020 7f d4 43 be 36 3a e1 be 4b 3b 7c 3e 33 c3 2b bf
       -0.1912403 -0.43989724 0.24631993 -0.67094725
000030 47 31 d3 3e ab c3 94 bd 2f bd 4d be d3 85 dd 3e
       0.41248533 -0.07263883 -0.20091699 0.43266162
000040 94 eb 98 be fe 69 b4 3e 8d b9 bf 3e b8 fe 1e be
       -0.29867232 0.35237116 0.37446252 -0.15526855
000050 1d b7 a4 bd d7 6f d9 be 76 a9 1a bf fe 1f 86 be
       -0.080427386 -0.4246814 -0.60414827 -0.26196283
000060 52 39 c8 3e a1 d4 38 be 46 98 4e 3e aa b7 c1 3e
       0.39106232 -0.18049861 0.20175275 0.37835437
000070 83 c6 c8 bd 2e 10 01 3e 5b 4b 4b be 15 0f 29 3e
       -0.09803488 0.12603828 -0.19852965 0.1650966
000080 99 95 9f 3e e9 d9 d3 3e 71 d2 6a be b6 08 63 be
       0.3116882 0.4137719 -0.2293184 -0.22171292
000090 db f3 e2 3e f6 15 b2 3d db 3d 0c be 13 ce 77 3e
       0.44326672 0.08695595 -0.13695471 0.24199705
0000a0 1f f0 33 be d6 5f 5c be 3b 32 fe 3e 6f 0e 32 3e
       -0.17572068 -0.21520934 0.49647698 0.17388318
0000b0 a7 b8 39 be 57 cb dc 3d 5b a0 e6 bd b3 f6 93 bd
       -0.18136846 0.107809715 -0.11261054 -0.072247885
0000c0 63 cb 72 be 19 48 07 be 9c 2d e9 bd b5 61 ab bd
       -0.23710398 -0.13211097 -0.113856524 -0.083682455
0000d0 83 6b 2d be 13 4b e0 bd 6a b9 42 be c5 fa 51 be
       -0.16935544 -0.10951819 -0.19016042 -0.20505817
0000e0 0d 50 bc bd ec fd f9 bd f6 65 b8 bd 8b 92 09 bf
       -0.09194956 -0.12206635 -0.090038225 -0.5373923
0000f0 c5 1f 03 be 2f 14 ec bd 20 62 65 be 22 84 b2 3e
       -0.12805088 -0.11527287 -0.22400713 0.34866434
000100 a0 0b 1b be 8d e2 64 be ed e8 0c be eb 52 3d be
       -0.15141153 -0.22352047 -0.13760729 -0.18488662
000110 29 22 6e bd 31 de d0 3e d6 55 95 3e 67 5e 4a 3e
       -0.058138046 0.4079452 0.2916705 0.19762574
000120 f1 87 15 be 6f 37 0f be df 86 c8 3e eb 71 d2 bd
       -0.14602639 -0.1398599 0.39165398 -0.102756344
000130 cb d3 91 be c8 4b 14 be bf 0c 1f bf d4 52 38 3e
       -0.28481898 -0.14482033 -0.62128824 0.18000346
000140 5a 3b 79 be 62 f0 85 3e 6b f5 09 be 34 01 1b be
       -0.24339047 0.2615996 -0.13472526 -0.15137178
000150 6e 8f c6 bd 9a 19 e8 be eb 5c 81 3e d5 ad 8b 3e
       -0.09695326 -0.45332032 0.25266203 0.2728106
000160 e7 b0 a0 bd cf 16 99 3e 61 22 0c 3e 14 e5 b5 be
       -0.078462414 0.29900214 0.1368499 -0.35526335
000170 f9 27 d6 3e 08 a9 78 be db 4b 46 be 19 a6 2d be
       0.41827372 -0.2428323 -0.19364874 -0.16957892
000180 97 6b 95 be 13 91 76 be 1e ea e4 bd f9 c4 36 be
       -0.29183647 -0.24078779 -0.11177467 -0.17848577

dense3.weight f4 [100, 100]
000000 e6 46 1c 3e 73 c0 96 bd a6 a4 c3 3d 1c 11 00 c0
       0.1526142 -0.073609255 0.095528886 -2.0010443
000010 8a 23 f7 bc c5 0e 7c bf 68 13 1d 3e b3 d1 10 be
       -0.030168314 -0.98460037 0.15339434 -0.14142494
000020 83 9e 54 bf b5 66 94 bf e1 7d 15 3f 68 0d 38 be
       -0.8305437 -1.1593844 0.583952 -0.17973864
000030 c9 6e a1 be 4c 75 55 bd 67 b8 5a be 8b de b1 3e
       -0.31529835 -0.052113816 -0.21359406 0.347401
000040 01 fd bb be 76 7c f4 3e fa 6e ed be fd 99 9b bd
       -0.36716464 0.47751206 -0.4637373 -0.0759773
000050 74 a7 49 be e8 9d f2 be db 67 b6 3e 11 9a 84 bd
       -0.19692785 -0.47386098 0.3562611 -0.06474698
000060 c9 0b 08 3f 51 0a f7 3d d7 43 80 bf 35 5b 53 3f
       0.5314298 0.120625146 -1.0020703 0.82561046
000070 0d df cd bd 69 54 89 be f7 aa 4e bd 67 f4 05 3c
       -0.10052309 -0.26822212 -0.050456014 0.008175946
000080 f2 55 bd 3e 17 d2 69 3d a3 28 45 bf 6a 0d 24 bf
       0.36979634 0.057085123 -0.7701513 -0.6408297
000090 ad 1a 95 be b1 4b b8 3d 82 69 17 be 22 b4 04 3f
       -0.29121915 0.08998812 -0.14786342 0.5183736
0000a0 c3 71 81 3d 7d e2 f3 3d d4 e7 31 3e 5c cb 15 3e
       0.063205265 0.119084336 0.17373592 0.14628357
0000b0 db 65 77 3d 3f 5c 84 bc 12 52 fd bc 96 6b f2 bd
       0.06039987 -0.016157268 -0.030922923 -0.11836927
0000c0 22 66 1e be c4 7f 1b bf ea 45 7d bd ed 42 88 bd
       -0.15468648 -0.6074183 -0.061834253 -0.0665339
0000d0 96 28 8e bd 24 03 99 3d d2 7b 90 3c b5 05 6f be
       -0.06941335 0.07471302 0.017637167 -0.23342021
0000e0 a6 3a c8 bc bd 2f d9 3c 08 37 05 be b1 3a 57 be
       -0.024442028 0.026512021 -0.13009274 -0.21018483
0000f0 bf 8f b5 3d e3 50 96 bd 46 e4 6e bd 49 9f 25 3f
       0.08865308 -0.07339647 -0.058323167 0.64696175
000100 bb 33 cf 3d 75 a4 47 3e c0 cb 04 3e af 3f 55 3e
       0.10117289 0.19496329 0.1296835 0.20825075
000110 44 d5 45 3d a3 df 8a be 6b 29 c5 be b2 3a 1f be
       0.04829909 -0.27123746 -0.38508162 -0.15549734
000120 86 6c 1c be ff 74 8c 3e 78 87 e8 3e 5b 9a 8c bd
       -0.15275773 0.2743301 0.45415854 -0.068653785
000130 9e 71 38 bf 53 b4 2a be d4 6d 43 bf 3d 8d 54 3e
       -0.72048366 -0.1667035 -0.7633946 0.20757003
000140 61 be 32 3e ad 9e 24 3f 16 f4 b4 3d 5e f9 09 bd
       0.17455436 0.6430462 0.08835618 -0.03368508
000150 e5 c0 10 bc 5c 64 d9 be 2d 39 b8 3e 84 61 ef be
       -0.008835052 -0.4245938 0.35981122 -0.46754086
000160 e1 e6 c5 bf 96 b9 cc bd f6 39 81 be a0 4c 6e be
       -1.5461084 -0.09996335 -0.25239533 -0.23271418
000170 22 a0 0c bf 63 2f 27 bd c4 e9 8d bf 2f a6 1f bf
       -0.54931843 -0.040816676 -1.1086965 -0.6236295
000180 51 31 30 bf 1f 24 27 bf 62 53 f1 bd 1f a9 fc be
       -0.6882525 -0.6528949 -0.11783482 -0.4934778
000190 c9 3f d9 bd f9 4a 53 bd 32 04 ca bd a0 37 8f bf
       -0.10607869 -0.05158517 -0.098640814 -1.118885
0001a0 6a fe 3a bd 46 bf 15 bf 11 e0 0f bd de 0f 42 3e
       -0.045652784 -0.58494985 -0.035125796 0.18951365
0001b0 3b 78 d5 be 9b d0 1e bf 41 20 b9 3e 16 f5 9b bf
       -0.4169329 -0.62037057 0.3615742 -1.2184169
0001c0 f0 d7 d2 bb df fd 1f be d3 d2 11 be 37 68 a8 3e
       -0.006434433 -0.15624188 -0.1424058 0.3289201
0001d0 4a 45 08 be f6 4c f3 3e b5 fa 19 bf 5a be 8d bd
       -0.13307682 0.47519654 -0.60148174 -0.06921072
0001e0 4a 5b ea bd ac aa b7 3c 84 a7 9e be 23 b0 3d 3f
       -0.11443193 0.02242025 -0.3098718 0.7409689
0001f0 79 78 8d 3e 35 55 fb 3d 6c 7b 6d bf 0e d5 46 3f
       0.27630976 0.12272111 -0.9276645 0.77668846
000200 9f ed fd 3d 26 c4 d4 be 25 06 0b be c2 46 23 3d
       0.12398838 -0.415559 -0.13576563 0.0398624
000210 1f b2 07 3d 69 65 19 3e e1 ee 50 bf 5d 23 3d bf
       0.033128854 0.14980091 -0.816145 -0.73882085
000220 d3 6d 60 bd 83 94 14 3f bc a8 c2 3d be 29 a8 3e
       -0.054792237 0.5803911 0.0950484 0.32844347
000230 8e ff 40 3e fe 11 a4 bd 39 bd f5 3e 8e 92 20 3e
       0.18847486 -0.08011244 0.47995928 0.15680906
000240 a2 34 b1 3c 06 98 c5 be 0c a9 04 be db b7 c6 bd
       0.021631543 -0.38592547 -0.12955111 -0.097030364
000250 3e 1f 53 bd b6 20 63 be 3f ee 23 3e fe 9d 55 3d
       -0.051543467 -0.22180447 0.16008852 0.052152626
000260 4c e5 cb bb bd c7 8d bd 95 d5 09 be 11 4a 9e bd
       -0.0062224027 -0.06922863 -0.13460381 -0.07728971
000270 89 96 03 bd b0 c2 ab 3d 99 f1 b5 3d 3d c2 5d be
       -0.032125983 0.08386743 0.08883972 -0.21656127
000280 c1 a9 f0 bd 28 53 a4 3d 62 7e 46 bd 7e 6a 02 3f
       -0.11751128 0.08023673 -0.04846037 0.50943744
000290 c7 ed d9 3d 3a f7 22 3e 94 96 d6 3d 03 d8 49 3d
       0.106410556 0.15914622 0.10477939 0.04927827
0002a0 c2 4b b5 3d 1f 13 62 bd 9c 36 bd be d3 58 93 bd
       0.0885234 -0.055194017 -0.36955726 -0.07194676
0002b0 ba 49 5d bd 4e 80 e4 3d e1 7d 8d 3e 20 9c 11 3e
       -0.05402539 0.11157285 0.276351 0.14219713
0002c0 83 94 16 bf 9e 08 64 3c 4c 8f 83 be 81 6a 76 3e
       -0.5882036 0.01391807 -0.25695264 0.24064066
0002d0 90 23 1f 3f 16 07 d1 3e e1 b4 39 3e f1 f1 4b be
       0.6216364 0.4082572 0.18135406 -0.19916512
0002e0 56 4f 9a bd 02 77 13 bd 79 db 06 3f 18 72 00 bf
       -0.075346634 -0.036002167 0.5267864 -0.50174093
0002f0 04 2d be be 99 c5 94 3d ea 2d 74 be 08 91 05 bf
       -0.3714372 0.07264251 -0.2384564 -0.52174425
000300 3a 15 1e bf 4d 06 80 bd 78 c8 50 bf e1 3a 1b bf
       -0.6175114 -0.06251202 -0.8155589 -0.6063672
000310 a9 3b 24 bf cf a5 9f be 1d 1a df 3d d1 5f 8a be
       -0.64153534 -0.3118119 0.108936526 -0.27026227
000320 bf 9e 01 3e 5b 41 23 be 69 af 42 bd bb 80 ed be
       0.12658213 -0.159429 -0.047530565 -0.46387276
000330 ab 22 ec 3d 94 9f 98 be 0e cb 9e 3d e9 d9 86 bd
       0.1153005 -0.29809248 0.07753573 -0.06584532
000340 98 20 98 3e 35 81 f3 be bf 53 33 3e 5a 4d b7 bf
       0.29712367 -0.47559515 0.17512415 -1.4320481
000350 4c e2 1e 3f 90 1d 80 3d 23 62 4d bd 50 db 5d 3d
       0.6206405 0.062556386 -0.05014242 0.05416423
000360 25 24 00 bd 3d 3e 9a 3e bb 41 11 bf 5c 20 91 3d
       -0.03128447 0.3012561 -0.5674092 0.0708625
000370 33 99 19 3e c2 61 81 bf 03 02 f5 3c 39 c1 f8 bd
       0.14999847 -1.0107958 0.029908186 -0.12146229
000380 79 78 e6 be a0 9d ab bd 90 c6 bf bd 17 56 3c 3f
       -0.45013788 -0.08379674 -0.09364045 0.7356886
000390 71 55 cc 3d dd 30 c4 3d 23 e7 3a be 91 c7 3d bf
       0.09977234 0.095796324 -0.18252234 -0.7413264
0003a0 9d 48 d6 be f1 8a 18 be 66 8b 68 3d bb ea e5 bf
       -0.41852275 -0.14896752 0.056773566 -1.7962259
0003b0 3c 75 5b bf 35 51 02 3e bf ad 92 3b 26 31 cb bd
       -0.8572576 0.1272629 0.0044762786 -0.09921484
0003c0 ce 82 b1 bd 4c 83 03 be 7c ab 8b be 98 9d 4e 3e
       -0.08667527 -0.12843055 -0.2727927 0.20177305
0003d0 81 c2 21 3e dd 92 18 bf 4c c2 f6 bd d7 9a 40 bc
       0.15796854 -0.59599096 -0.12048778 -0.011755667
0003e0 c4 f1 90 be 9d 25 06 bf 88 a1 d5 3d fe ee b9 bc
       -0.28309453 -0.52401143 0.104312 -0.022696968
0003f0 dd 3b 35 bd 5f 22 19 be 79 33 01 bd c1 c4 82 bb
       -0.044246543 -0.14954518 -0.03154323 -0.00399074

dense3.bias f4 [100]
000000 3e 35 1f 3f 78 4b 50 3f b5 2d 00 bf 66 3f 5a bd
       0.62190616 0.81365156 -0.50069743 -0.053283118
000010 29 a0 55 be 5a 39 e9 bd b1 c4 3d 3f 71 1d 12 3f
       -0.20861878 -0.11387892 0.7412825 0.57076174
000020 b5 02 27 3f 16 9a 0d 3d 67 e9 8f bc 6f 31 cd 3e
       0.65238506 0.034570776 -0.01756735 0.40076777
000030 96 a1 b4 3e cd 87 33 be 24 f2 4c 3f a2 32 5f bd
       0.3527953 -0.17532273 0.8005698 -0.054491647
000040 7e 5c 42 be a4 76 6a 3e f9 6e 13 3f 33 1a f0 bd
       -0.18980595 0.2289682 0.57591206 -0.11723747
000050 2a 70 08 3e ad 06 0c bd 32 0d 58 bd cf da af be
       0.13324037 -0.034186054 -0.05274696 -0.34346625
000060 83 8b a6 bd 9e c9 4c 3f 13 4c b5 3e 89 39 83 3e
       -0.081320785 0.79995143 0.35409603 0.25629833
000070 f1 5a 20 bd a4 88 a7 bd 21 27 1a bd a1 25 d2 be
       -0.03914923 -0.08180359 -0.037634972 -0.41044334
000080 2b 12 39 3f 01 40 b8 bd a1 a8 0b 3f 69 c3 4c be
       0.7229335 -0.08996583 0.5455418 -0.19996418
000090 dc c1 11 be ef cc 85 be e9 fd f1 be bb e2 5d be
       -0.14234108 -0.26132914 -0.4726403 -0.21668522
0000a0 94 3f 40 be 12 6a ca bd fb 37 18 3f 3f 32 f4 bc
       -0.18774253 -0.098835126 0.5946042 -0.029809115
0000b0 2b 1b 38 3f 97 8b 11 be ff b6 3b 3f 23 b9 c0 3e
       0.71916455 -0.14213406 0.73326105 0.37641248
0000c0 c8 6b 3f 3e 72 3c 13 3f 34 26 15 be 4c 26 e4 3e
       0.18693459 0.5751411 -0.14565355 0.44560468
0000d0 2a 37 6d bd db 9d d0 bd 6d 96 ac bc 26 b4 2b be
       -0.057913937 -0.101863585 -0.021067822 -0.1676794
0000e0 d6 1b 21 be de e0 09 be 45 ac 00 bd 66 52 a5 be
       -0.15733275 -0.13464686 -0.03141429 -0.32289428
0000f0 c5 0f 57 be a0 57 b5 3d 88 92 c5 3c 38 8f 51 3f
       -0.2100211 0.08854604 0.024117723 0.8185916
000100 3d d7 b1 bd a1 80 14 be 4d cb 55 be 91 d9 a8 3d
       -0.086836316 -0.14502193 -0.20878334 0.082446225
000110 69 ed 7a 3e b6 52 32 3d 93 b6 3f 3f 2b 28 c7 bd
       0.24504627 0.04353591 0.7488796 -0.09724458
000120 8b fa d9 3e 32 af 59 3e e5 2b d7 bc ae 16 ac 3d
       0.42573962 0.21258238 -0.026266048 0.08402763
000130 a6 aa e1 bd c9 8a 3f 3f 7a b4 58 be 59 d4 4a 3f
       -0.11018877 0.74821144 -0.21162596 0.79230267
000140 9a ce 38 bd 97 a3 28 3f d1 ab 09 3f 19 31 16 3f
       -0.045118906 0.6587462 0.53777796 0.5866867
000150 44 16 37 be d6 b1 3c 3f b2 7c de be 12 ff 05 be
       -0.17879587 0.73708856 -0.4345451 -0.13085583
000160 75 60 d7 bd 81 0b 33 3f 85 77 87 3d f1 37 38 3f
       -0.105164446 0.6993943 0.066145934 0.7196036
000170 ca aa 81 3e 0e 8f 43 3f 3d ea 41 be be e1 10 be
       0.25325614 0.7639016 -0.18937011 -0.14148614
000180 24 a5 3a 3f 55 18 c0 3c c9 28 44 3f c6 68 59 be
       0.72908235 0.023449102 0.76624733 -0.21231374

dense4.weight f4 [2, 100]
000000 48 ac 85 3e b7 1e 7a 3e f1 10 0c 3e de f4 0e bd
       0.26108003 0.2442578 0.13678338 -0.034901492
000010 19 61 ed bc df da 4c 3f 2d 61 a0 3e 2f ea a7 3e
       -0.028976964 0.8002147 0.3132414 0.32795855
000020 ec 53 c5 3e 2c 0e 06 c0 e9 23 f4 3f 2c 93 f5 3f
       0.3854059 -2.094615 1.9073459 1.9185538
000030 38 03 54 3f a1 26 7b be 4e 19 ad 3e 76 24 36 be
       0.8281741 -0.24526455 0.33808368 -0.17787346
000040 45 c5 30 be 6f 65 3e 3f 1a 9a 3c be ca 4d 06 3c
       -0.17262752 0.74373525 -0.1841816 0.008197257
000050 26 5b b0 bf 83 56 29 3d 20 1b 85 3e 56 b7 3e bf
       -1.3777816 0.04134227 0.25997257 -0.744985
000060 aa bf 8d bf 90 a7 b4 3e 22 53 9a 3f 0a 0e 4f 3f
       -1.1074116 0.3528409 1.205662 0.80880797
000070 2b a3 ce 3f 2c 26 eb be 6b e5 09 3f 11 da 89 bf
       1.6143545 -0.4592756 0.5386569 -1.0769674
000080 d3 14 6d 3f 27 d6 c1 3d a9 ce 87 3e 64 7f 01 bc
       0.926099 0.094646744 0.26524857 -0.007903907
000090 f8 8b f2 39 b3 04 98 be 95 6f d2 3c 82 bd 84 bf
       0.00046262122 -0.29691085 0.025687972 -1.0370333
0000a0 22 22 86 be 77 03 80 3f e2 a1 ad 3d 73 82 cd 3c
       -0.26197916 1.0001057 0.08478142 0.025086617
0000b0 72 a4 93 3e 81 66 cc bd bf 20 b5 3e 5e d0 db bf
       0.288364 -0.099804886 0.35376546 -1.7172964
0000c0 7c d9 57 3e b7 8c 6e 3f f8 5a 23 3e 3f 36 67 3f
       0.21079057 0.93183464 0.1595267 0.9031715
0000d0 03 49 db bd 34 d4 cc be a2 24 aa bf 33 ce bc be
       -0.10707285 -0.40005648 -1.329243 -0.36876068
0000e0 66 5c 86 bf 2d 6c eb be f6 b7 00 3d 4e 4f 4a be
       -1.0496948 -0.4598097 0.03142544 -0.19756815
0000f0 77 fc 9e 3b ca 0d fa be f5 6c ad bf 58 7f 60 3e
       0.0048518735 -0.48838645 -1.3548876 0.21923578
000100 eb 85 bb be 95 9c 25 be e2 3c 7a 3c 44 1c d9 3d
       -0.3662561 -0.16173013 0.015273305 0.10601094
000110 b3 20 84 3e a7 13 b7 bf e4 e1 ad 3d 63 c5 89 bf
       0.25806198 -1.4302872 0.08490351 -1.0763363
000120 ea 8d 54 3f 06 f8 ab 3f 4b 24 3b bd e4 75 7a bd
       0.83029044 1.3435066 -0.04568891 -0.061147586
000130 b2 20 f3 bd eb 9e 45 3f bf 4d 50 bb 76 69 fc 3e
       -0.118714705 0.77195615 -0.0031784622 0.4929921
000140 4e 0c db 3d 2b a1 8b 3f 92 c1 df 3e 9c 02 93 3e
       0.10695706 1.090856 0.4370237 0.28712928
000150 68 f1 9c bd f3 3f d3 3e 93 b0 84 bf 7c eb 27 3e
       -0.07663232 0.41259727 -1.0366386 0.16398424
000160 00 47 10 3e 19 bd 08 3f ac c4 ea 3d b5 4a a6 3e
       0.14089584 0.5341354 0.114632934 0.32478872
000170 d9 a8 0a bf 06 16 8e 3e 2e 28 3f be 6d 34 88 bc
       -0.5416389 0.27751178 -0.18667671 -0.016626561
000180 6f 73 62 3e 1b 27 b0 bf f3 5f 96 3e 5a 64 e7 bc
       0.22114347 -1.3761934 0.29370078 -0.028246094
000190 82 46 24 3f 9d e0 0d 3f a1 80 3c bf 16 f5 cb 3c
       0.64170086 0.5542086 -0.7363377 0.02489714
0001a0 f0 57 79 bd 22 7d c3 be d0 28 da 3e 1c 59 32 3f
       -0.06087488 -0.38181406 0.42609262 0.6966722
0001b0 33 31 8d 3d 6c d1 34 3f 7e 7f fc 3e 00 39 8d 3f
       0.0689415 0.7063205 0.4931602 1.103302
0001c0 e2 5a 9d 3f c7 82 7e 3d aa 55 d1 3e ff 9e 8d 3d
       1.229336 0.062136438 0.4088567 0.06915092
0001d0 ab 21 e7 bd 29 45 31 bf 94 75 26 3f ec 8d dd bc
       -0.112857185 -0.69246155 0.6502316 -0.027045213
0001e0 64 01 03 c0 01 09 1e 3e 41 bc 17 bf 03 23 c6 3c
       -2.0469599 0.15433122 -0.5927163 0.024186617
0001f0 9e 87 d2 3f 60 3b 24 3e f9 07 a0 bf 73 ab e1 bc
       1.6447637 0.16038275 -1.2502433 -0.027547574
000200 43 21 a4 bf 21 6c 79 bf 4c a2 a4 bd d5 7a 17 bf
       -1.2822651 -0.97430617 -0.08038768 -0.591718
000210 f5 1b c3 3f 1d 52 06 3c f3 1a 34 3f af fa 14 3e
       1.5242907 0.008198288 0.7035362 0.14548753
000220 14 33 19 3c e3 ce 8e 3e d4 58 64 3f 78 0b 31 bf
       0.009350557 0.27892217 0.8919804 -0.69158125
000230 32 4a 1c 3e 4c 84 7a bf ff 24 36 3f 12 88 ed be
       0.15262678 -0.9785812 0.711502 -0.46392876
000240 22 65 17 3f 4b 22 cd 3d 8c de 1c 3f b6 c3 00 c0
       0.5913869 0.100163065 0.6127708 -2.0119452
000250 96 cd 81 3e 39 6d 71 3f 77 04 d1 3d a1 50 49 3f
       0.25352162 0.94307286 0.1020593 0.78638655
000260 85 b8 11 3e 62 ff 96 3f f1 14 d3 3f 8d 4e b5 bf
       0.14230545 1.1796687 1.6490766 -1.4164597
000270 e7 f7 6b be 7a a5 59 3e 69 6a 96 3d 83 0d 6c 3f
       -0.23043786 0.2125453 0.07344515 0.9220812
000280 28 3f e9 bc aa 33 df 3f 4e fe 39 3d 48 5b 1d 3f
       -0.028472498 1.7437642 0.04540854 0.6146741
000290 2f e0 c9 3e dd ac 94 3d e2 33 42 3d 4e 92 e8 3f
       0.3942885 0.072595336 0.04741276 1.8169649
0002a0 f9 a2 7e 3f c3 d5 ee bf f3 55 ef 3e ca 8b 37 3f
       0.99467427 -1.8658985 0.46745262 0.71697676
0002b0 db 17 77 3f 72 cc 6c 3f 67 c2 11 bc 12 06 68 3d
       0.96520776 0.9249946 -0.008896447 0.056646414
0002c0 65 be 09 bc 64 4e 0a bf da 63 d9 3c 34 b7 f5 3e
       -0.00840721 -0.54025865 0.02653687 0.47991335
0002d0 2b 00 82 be 2b 0e c9 3f 11 b6 56 be 50 64 05 3f
       -0.25390753 1.5707449 -0.2096789 0.5210619
0002e0 c5 7d 4c bd b5 c6 36 3e c4 26 74 bf 3f 1c 9a 3c
       -0.04992463 0.17849238 -0.9537165 0.018812297
0002f0 be fa 23 be 58 69 e2 bf b5 00 1d 3d 83 ff 11 3f
       -0.1601362 -1.7688398 0.038330752 0.57030505
000300 95 ac 91 3c f4 7d 36 3f ec cc 39 3e f2 35 07 be
       0.017782489 0.7128594 0.18144578 -0.13204172
000310 40 59 11 3f a9 4f 02 bf 52 fc ec 3e 6f d6 a1 3c
       0.5677681 -0.509028 0.46286255 0.01975557

dense4.bias f4 [2]
000000 cc 9a 03 3f 9f 02 3d 3f
       0.51408076 0.73832124
