labs/model.pth (torch, 11599 bytes, 8 tensors)

dense1.weight f4 [32, 4]
00000000: a2d6 c3be 00f5 9cbe 58ee 963e b127 c43e
00000010: eabd 9dbe 3845 44be 42b6 683e 4aba 0e3d
00000020: 366a d73e 967f babd d70c 21bf fd98 ddbe
00000030: e2a6 163f 1dae 03bf 40c1 49bf 831c a2be
00000040: 94ae 1cbf c1c3 a33e a898 803f 8645 023f
00000050: e597 193e 6d54 dfbd 681e 4d3e d21a 0fbe
00000060: 4d53 0dbf aa6a ed3e 6f0f ae3e 8e10 1d3e
00000070: 09c4 8f3e 7a0f 3b3d a91a 2ebc 0169 073e
00000080: 4d92 22bf 10e8 e23e c5b0 1f3e 7e96 b23e
00000090: 697f d33d 8113 283e d55a 16bf 0168 63bd
000000a0: 726a aebc a711 2ebe 6765 ed3d 487c 5e3d
000000b0: 628f f33d ab13 15bf 197b 88be 7403 96bd
000000c0: b70a a43e f884 8d3e 3a53 80be 3180 32be
000000d0: 940c 983d 650e c43e bafd 1ebf a08c 9e3e
000000e0: 000a 77bf fd05 483e d795 2b3f e4f3 e93e
000000f0: 00a2 7a3e bcd6 0d3e d8c4 f73d 6cea 1e3e
00000100: 62e1 82be 4ce4 b8bd ab2b 35bf 8947 813e
00000110: 2fc7 973e 5fe5 8e3e 54f6 70bf a8de f4bd
00000120: f9e7 debe d5c2 8cbe 9e52 9e3f 21ef a53e
00000130: b3b0 da3e 4628 51bd 7152 d1be 1720 08be
00000140: 64c0 a5bd db6f 643e 32f0 c63e 17bb 173e
00000150: edd5 39bf 9fbd f93d ffe1 ae3e 9a6f cdbe
00000160: d90d 27bf 1bce 90be 3da1 983f 75af 713e
00000170: f212 313f 3008 313e 3ce4 e8be 9dd5 3ebe
00000180: e60c 18bb 1405 d53e 954a b63e 9a6e ca3e
00000190: 6b82 b93e 97c5 823e d291 72bf a8e6 d5be
000001a0: 25bd 153f 8470 843e f830 ccbe aa5d 85be
000001b0: 2cf3 0dbf d40a da3e 9080 de3d 8dd8 e33c
000001c0: cd57 4c3f 9089 bbbe 9df5 8fbf 2c65 a0be
000001d0: 0fda b0be 8f6b 0c3f 3d38 073f be97 65be
000001e0: 66a9 983e 26ce 22be d171 6abf 27df afbe
000001f0: dd13 eabe 41c7 33be 03a4 f7bb fa33 a1be
-0.3824969 -0.3065567 0.29478717 0.38311532 -0.30808955 -0.1916703 0.22725776 0.034845628
0.4207322 -0.09106366 -0.6291022 -0.43280783 0.5884839 -0.5143755 -0.788105 -0.31662378
-0.61203885 0.31985286 1.0046587 0.50887334 0.1499935 -0.10904775 0.2003113 -0.13975075
-0.5520523 0.4637044 0.3399615 0.15338346 0.2807925 0.045669056 -0.010626473 0.1322365
-0.6350449 0.44317675 0.15594776 0.3488044 0.10327036 0.1641369 -0.5873235 -0.055519108
-0.021290991 -0.16998921 0.115916066 0.054317743 0.118925825 -0.58233136 -0.26656416 -0.073248774
0.32039425 0.2764051 -0.25063497 -0.17431714 0.07424274 0.38292232 -0.62105906 0.30966663
-0.96499634 0.19533534 0.6702551 0.45693886 0.2447586 0.13851446 0.12098092 0.15519112
-0.25562578 -0.09027919 -0.7076976 0.2524989 0.29644153 0.2790937 -0.94125867 -0.11956531
-0.43536356 -0.27492395 1.2368963 0.32409003 0.42712936 -0.0510638 -0.4088321 -0.13293491
-0.08093336 0.22308294 0.3885513 0.14817463 -0.7259205 0.121943705 0.34156796 -0.40124208
-0.65255505 -0.28282246 1.1924206 0.23602088 0.69169533 0.1728828 -0.4548663 -0.18636174
-0.0023201047 0.41605437 0.35603777 0.39537507 0.36232314 0.25541374 -0.94753754 -0.4177754
0.58491737 0.25867093 -0.3988111 -0.26048023 -0.55449176 0.42586386 0.10864365 0.02781322
0.79821473 -0.3662839 -1.124683 -0.31327188 -0.34541366 0.5485162 0.5282019 -0.22421166
0.2981674 -0.15898952 -0.9157992 -0.3434994 -0.4571828 -0.17556478 -0.0075573935 -0.31484967

dense1.bias f4 [32]
00000000: 1faa 13be 4653 eb3e be45 aabe 7e6c b03e
00000010: 841c b1be 780b 50be f003 103f 52b2 ca3e
00000020: 0471 cb3e 7ed9 0b3f a3e1 153f 7872 e2bd
00000030: f3d6 133f dcd9 853e c342 b2be 42ab b2be
00000040: 3816 643e f8b0 da3d f111 9dbe e7e5 0e3f
00000050: fbd1 6e3e 01ff b13d edbc 04bd 0903 39be
00000060: 3a81 ba3e 8cd4 85be f2a5 debe d6b3 63bd
00000070: 47a0 02be fad2 743d 5a97 68be 10bf 0d3f
-0.14420365 0.4596197 -0.33256334 0.34457773 -0.34592068 -0.20316875 0.5625601 0.39589173
0.39734662 0.5462874 0.5854742 -0.110569894 0.5774986 0.26142776 -0.3481656 -0.34896284
0.22274101 0.10678285 -0.3067775 0.55819553 0.23322289 0.08691216 -0.032406736 -0.18067564
0.36426717 -0.26138723 -0.4348598 -0.055591427 -0.12756453 0.059771515 -0.22713986 0.55369663

dense2.weight f4 [32, 32]
00000000: 37ea b6be 6a4e 8f3e b03d 75bd 1016 273e
00000010: 557a 96be e0ef 3b3d 05b4 a53e f502 383e
00000020: e964 943e 4a3b 7a3e d63d d43e 1a19 b93d
00000030: 8472 523d e7ba 3c3e 1059 8abe 8bd9 97be
00000040: f79a c73e d3f5 b93d 0580 8abe fe2e 353e
00000050: 9af7 983e cbf2 ea3d 286e babe 2139 73be
00000060: f4a9 413e 01c9 0dbd 85d4 1fbd 2e78 77be
00000070: bcd3 13bf 26f2 a93c db57 c1bd 83c3 d13d
00000080: 4b41 a4be ec7d 18be 4c10 643e 93a3 033f
00000090: ddfc 13be a47b 0bbe 00dc 32bd 81cb 93be
000000a0: ee06 22bf 39e0 76bd 0040 39be b0af 61bf
000000b0: ebed e8bc 5ebe 1a3e f930 68be ec2c f1bd
000000c0: 176e 38be 8c3f 843e 11c8 993d f61a 633e
000000d0: 7150 e5be 95d5 45be 4b5d f8be e3db cb3e
000000e0: 9fd9 13bf f70e 493d 425a 8d3d 1854 a5be
000000f0: 5dd2 483f 0210 2d3e 7ec2 373f 0311 063d
00000100: 322c f13b 9989 21be 9033 cbbe 694c df3e
00000110: f20a d0be 925f 8bbe 376d 8b3e 1270 4abd
00000120: fc7b 153e 05dc c73e 2c10 c83e 69ad e43d
00000130: 27a7 443e dacd 723d b0a5 0abf 2892 51bd
00000140: 9fab a23e b5a6 a33e 76bb bbbe a29f 963d
00000150: c6c2 b6bd 0468 93bd 0620 aabe 6b56 26be
00000160: ebf6 69bd ed11 a1bd fc8b 623d f6a3 e13e
00000170: 38a5 eebe 5d0d e03e 2ef8 74be 8be3 673d
00000180: c495 a3bd 6181 193e 3e85 85bd 9317 b9bb
00000190: b6dc 2ebf de34 233e 5a16 d23d a52f 913e
000001a0: 2f1d d1bd f7b2 713d d248 d43e 2372 d73e
000001b0: dbbd a03e f308 aa3d 854f 01bf 2e41 553e
000001c0: e21e 953e a8af 823d 417a 1fbe d322 ab3d
000001d0: 99dd 83bd 2526 233d 772f 1bbe d4b9 94be
000001e0: 4c82 0c3d 1df0 f4bb c8f3 6bbd e734 e73d
000001f0: 6085 86bd 8484 603e efb3 f5be 502c 263e
00000200: f9ac 9abe 0080 c4bb 0094 f9bb 2008 e63c
00000210: 96f3 f2bd c52d 953e 0815 98bd a01a e63c
00000220: 36af bebd cebc 9ebd b7f8 933e 32d2 0dbe
00000230: 400e d43d 6e36 36be ca03 623e 0006 7f3d
00000240: 52a5 babd 489c 403e 7024 48be 0273 bcbd
00000250: a8cf 25bd 32f5 b4bd ca29 333e 7b5f 29be
00000260: f217 003e 0907 81be e0a8 953c 9af7 753e
00000270: cf5f 8c3e 0e42 e2bd 90c8 7bbd 36c8 36be
00000280: bd51 7b3d b0e3 8ebe 6b70 5f3e cec6 8cbe
00000290: 08af 353e 2e82 033e 9b22 0c3e 0399 803e
000002a0: 25e4 98bd 5ca2 9d3d 0b28 d83d 074e 1e3c
000002b0: ad32 2ebe dfb5 9bbe 8f21 aabe 08c1 57be
000002c0: c895 72be f919 2abe 7b11 efbd 7be9 813e
000002d0: 9f83 923e 55bb ee3d 7ec5 1b3e 0015 b4be
000002e0: 8a77 fdbd bf98 c1be 07b0 263e a4fa 2b3e
000002f0: c9d2 a2be 74ca 883e 5786 6b3e 2702 92be
00000300: c9e2 073e 72cd f3bd 626d ce3a 715b e53e
00000310: a463 1bbe 47fe 8e3e df23 07be b8ee dbbd
00000320: 18a9 233e 2e63 21be 0626 473e a5db 8a3e
00000330: 4e1b d53c e742 b93e b05e 043e cf86 903e
00000340: e209 c63c c0cc b1bc 459b 88bc dbb3 9e3e
00000350: 83e8 293e 7b0d 6fbe 94a9 52bd 1cc6 82be
00000360: 8f86 54be 6647 90be d91b 02bf 81e5 a8bd
00000370: 378d 453e 84c4 61be be7d d53d a5e2 993a
00000380: 88ce 83be fcf1 e3bd 4d3b 843e 6c96 f63d
00000390: a7cc 51be 4ae1 413e 6070 0f3d 7cea fcbd
000003a0: 3439 093e 8edd 88be 28c7 ea3d fb23 97be
000003b0: 00a2 ce3d 8193 93be 907f b13c a41d dfbd
000003c0: 0045 cc3b 5574 44be 403a bebc acc5 ae3d
000003d0: 3046 02bd 0022 7d3b 6da9 843e 80b0 2fbe
000003e0: 2858 b6bd 106d 80bc 207b 5c3c 3dad 953e
000003f0: 400f 14bd 2800 05be 7d5a 30be face 66be
-0.35725567 0.27989513 -0.059873283 0.1631701 -0.29390207 0.04588306 0.32363907 0.17969878
0.28983238 0.2443668 0.41453427 0.09037991 0.05137874 0.18430673 -0.27021074 -0.2965816
0.38985416 0.090800904 -0.27050796 0.17693707 0.29876405 0.1147209 -0.36412168 -0.23752262
0.18912488 -0.03461552 -0.039021034 -0.24166939 -0.57744956 0.020745348 -0.09440585 0.10242369
-0.32081065 -0.14891785 0.22271842 0.5142147 -0.14451928 -0.13621384 -0.04366684 -0.288662
-0.63291824 -0.06027243 -0.1809082 -0.881587 -0.02843376 0.15111682 -0.22674932 -0.11776146
-0.18010746 0.25829732 0.07508863 0.22178254 -0.44787934 -0.19319756 -0.48508677 0.39816198
-0.5775394 0.049086537 0.06901981 -0.3229072 0.7844599 0.16900638 0.71781147 0.032731067
0.007360005 -0.15775146 -0.39687777 0.43612984 -0.4063335 -0.27221352 0.27231762 -0.049423285
0.14598078 0.3903505 0.39074838 0.11165888 0.19204389 0.059278347 -0.5415907 -0.051164776
0.31771562 0.31963125 -0.3666646 0.07354666 -0.08923869 -0.07197574 -0.33227557 -0.16243903
-0.057120245 -0.07864747 0.05530928 0.44070405 -0.46610427 0.43760195 -0.23922798 0.056613486
-0.0798755 0.1499076 -0.065195546 -0.005648562 -0.6830553 0.15938136 0.102581695 0.28356662
-0.102106445 0.059008565 0.41461807 0.42079267 0.31394848 0.08302488 -0.5051196 0.20825645
0.29125124 0.0638116 -0.1557398 0.083562516 -0.06438751 0.0398313 -0.15154825 -0.29048026
0.03430395 -0.007474913 -0.057605535 0.11289387 -0.06568408 0.2192555 -0.4798884 0.16227841
-0.30210093 -0.005996704 -0.00761652 0.028080046 -0.118628666 0.29136482 -0.074258864 0.028088868
-0.093107626 -0.077508554 0.28900692 -0.13849714 0.103542805 -0.17794201 0.22071758 0.06226158
-0.091135636 0.18809617 -0.1954515 -0.092016235 -0.04048124 -0.0883583 0.1749641 -0.16540329
0.12509134 -0.2520068 0.018269002 0.24020234 0.27416846 -0.11047755 -0.06147057 -0.17849812
0.06135725 -0.27908087 0.21820228 -0.27495426 0.1774255 0.12842628 0.13685076 0.2511674
-0.0746539 0.07696983 0.105545126 0.009662158 -0.17011519 -0.30412194 -0.33228728 -0.2106973
-0.2368995 -0.1661147 -0.11673256 0.25373444 0.28616044 0.116568245 0.15212056 -0.35172272
-0.12376316 -0.3781185 0.16278087 0.1679483 -0.3180144 0.2671696 0.23000465 -0.28517267
0.13270105 -0.1190442 0.0015749151 0.44796327 -0.15174729 0.27928373 -0.13197277 -0.10738891
0.15982473 -0.1576049 0.19448099 0.271207 0.026013996 0.36183855 0.12926745 0.2822785
0.024174634 -0.021704078 -0.0166756 0.30996594 0.16592602 -0.23344986 -0.051431254 -0.2554177
-0.20754455 -0.28179473 -0.5082374 -0.082468994 0.1929215 -0.22047621 0.10424374 0.0011740519
-0.25743508 -0.11130139 0.25826493 0.120404094 -0.20488225 0.18933597 0.03501928 -0.12349412
0.13400728 -0.26731533 0.11463767 -0.29519638 0.10089493 -0.28823474 0.021667272 -0.108943254
0.0062338114 -0.19185002 -0.023221135 0.08533797 -0.031805217 0.0038625002 0.25910512 -0.17157173
-0.08903533 -0.015677005 0.01345709 0.29233733 -0.036147356 -0.12988341 -0.17222019 -0.22539893

dense2.bias f4 [32]
00000000: bb3b e83d 60bc 1f3e 0f63 343e db6c f63c
00000010: 13e9 f3bd 7316 51bc 9f8a 98bc 5670 32be
00000020: 55f5 b83d 407a 893e 7182 943e 01fa c4bd
00000030: afdf 8e3e 577e a4bd b3d4 853e c494 243d
00000040: a1de 0d3e 5639 67bd 8510 dfbd f842 65bc
00000050: fb1b 003e 1ebe 0fbe d786 b9bd 9931 523c
00000060: 7636 26bc 52ff c43d d706 2bbe 14ae e0bd
00000070: 3d9c a9bc c700 853d 00a0 103d a8c0 ef3c
0.11339518 0.15599203 0.17615913 0.030081203 -0.1190969 -0.0127617 -0.018620787 -0.17425665
0.09031168 0.26851082 0.2900577 -0.09617997 0.27905032 -0.0803191 0.2613884 0.040180936
0.13854457 -0.056451164 -0.10891823 -0.013993017 0.12510674 -0.14037368 -0.09058922 0.012829208
-0.01014482 0.09619011 -0.16701828 -0.10970703 -0.020704383 0.06494289 0.035308838 0.02926667

dense3.weight f4 [32, 32]
00000000: c6bb 0fbe febc 94bf 6356 5ebe 1415 b23e
00000010: 97d3 8c3e 63c1 a3bd d2a5 cebd 70a4 453d
00000020: f954 5f3c c0cc 8e3e 41b4 d4bd fa44 a53e
00000030: a644 e33e c9c1 19bf a6e0 733e 90d6 a8bc
00000040: c185 b0be 847f 04bf 9c50 6bbe 6147 d33e
00000050: d65a 623e f002 10bf fa7e 63be 4202 473e
00000060: 9a01 cdbd d98b 8d3e 28c9 223d 736e 40be
00000070: b785 803e 73da 233e 60ef 2bbd 5341 af3e
00000080: f1ba 37be f6ee 98be cd28 ec3d e884 9abe
00000090: e03e 2b3d 7723 8a3e 483d 86be 68ac 6cbe
000000a0: c75c 86bd 0d77 5cbd cc2b 383c 62e4 1cbe
000000b0: ffb6 563d b825 413e eee2 52bc fe4b 443e
000000c0: 8a13 5e3e 349a 043d 7853 58be fdb0 a03d
000000d0: c3d1 91be 213c 873e 4a1e 4cbe 408c 64bd
000000e0: a0e2 acbe bbbd 9bbe 3def 13be b172 3cbe
000000f0: b88b a8be 073c e4bd 681f 9fbe 9801 613e
00000100: 8c45 64be a24c 75be 2e82 80bd 5432 a3bd
00000110: 5401 363e 6c9f cf3d 9630 703e 72b2 493e
00000120: 76fe 80be ee28 063e 4d26 873e 802b c63d
00000130: e0e7 87be d706 13be 7539 15be 0120 6fbe
00000140: f341 1fbe 1a52 0bbe 6832 15be 58bb 29bd
00000150: c4bb a83d e02d 19bd 7167 0bbe 253f 913e
00000160: 9c74 983d 5a52 8abe 0c69 04be 7f01 35be
00000170: e5df 973e f489 83be cc71 9d3d 00fb 8fbc
00000180: 6f1c 8c3d b1d6 2abf 013f dd3d 6753 da3e
00000190: 0c70 68bd be9f 7c3d 057b 923e 6a44 3e3e
000001a0: ca27 16bc e586 f13d 22ba 993e a477 9b3e
000001b0: 7746 8c3e 9812 89be f9a2 9c3e 532f 90be
000001c0: 4dff 8f3e 34c3 bebe 2f17 ddbe 1972 abbd
000001d0: 4655 afbd c718 0cbf 199e 08bf e691 b6ba
000001e0: 3e25 ec3e 2df8 4d3e b018 d1bc 0a08 21bf
000001f0: 8e44 8b3e f90d 2cbd 618a b1be 8233 943e
00000200: 4ee7 e43e 0d51 b4be d94d 193e 4c0c d63e
00000210: 1155 983e 112f 233e e08c 663d ee7f 01be
00000220: b78d 1abe 25cc eb3c f76f 313e 818b f13e
00000230: bb86 fd3e 2045 50be 1e57 9e3e 8c25 943d
00000240: 6b47 7e3e 94ca 0ebf d217 1abf 3437 13bf
00000250: 254a b73e 92dc a5be 4e02 95be f576 43be
00000260: cbca d43e 55db 59bd 5018 0c3e fc76 35bf
00000270: 070c a63d f7e2 833d 63c9 30bf 745f 03be
00000280: edb5 f0bd 0bc7 17be 81b0 91be 8c4f 8abe
00000290: c0a8 433e 2802 5f3d ac30 41be 8d7a 90be
000002a0: c031 c63c 591c 263e 6e02 9dbe fc2b ce3d
000002b0: eed1 07be a029 b93d 4a33 083e 4e80 713e
000002c0: fb26 80be 603c dfbd b4f4 bfbd a096 e13c
000002d0: 54d9 b43d 8daf 94be 45a0 ef3d 5c21 a63d
000002e0: 521f 203e 98ef 79be 6261 473e 30ce 823d
000002f0: 5f1e 93bd 771c c43d a08b 79be 9950 2dbe
00000300: 4b0d 3d3e d775 de3d aa80 853e 812a 303e
00000310: 8edc 6f3e ffb7 043e 12aa 80be 5c2e cd3d
00000320: 0e42 2fbd fa33 f5bd 1c3c a63e c9ba 003e
00000330: 6a8b cd3e 04ad 32be af87 fc3d 10cd 21be
00000340: 61c1 83be 5866 213e e41b fcbe c920 be3e
00000350: c796 c8be 9582 b13c 1f82 293e 6f08 df3d
00000360: fdb0 4b3e 248e ae3e f072 c63d 6607 03be
00000370: a1a4 e3bd be85 993e 2841 efbc 3078 4bbe
00000380: 4045 873d ef74 0f3f e7fe 79bd 9d13 db3d
00000390: e91b 8b3e 2bc7 cebd 30e9 3cbe 8e95 4cbe
000003a0: fb61 f0bc be34 7bbe 6c0c b8be 54fc 8bbe
000003b0: 0c86 c6be 321d c53e e695 8a3e f831 2c3d
000003c0: c941 a43e 25a8 0d3f 45c7 8dbe fd61 84be
000003d0: 3dea f9bd 3d8e 313f dbfb 6cbe 9373 80be
000003e0: 0dd1 0ebf 3322 f4bd 0926 843e f471 f23e
000003f0: ecc7 16bd 4458 33be d35b ed3e 3928 b53e
-0.14036474 -1.1620176 -0.21712641 0.34781706 0.2750518 -0.0799587 -0.100902215 0.048252523
0.013631099 0.27890587 -0.10385943 0.32279187 0.44388312 -0.6006132 0.23816165 -0.020610124
-0.34477046 -0.51757073 -0.22979969 0.41265395 0.22104964 -0.5625448 -0.22216406 0.19434455
-0.10010071 0.27645758 0.03974262 -0.18792133 0.25102016 0.160013 -0.041976333 0.34229526
-0.17942406 -0.29869813 0.1153122 -0.30179524 0.04180801 0.26980183 -0.2621863 -0.23112643
-0.065606646 -0.053824473 0.011240911 -0.15321496 0.052420612 0.18862045 -0.012871487 0.19169614
0.21687141 0.032373622 -0.21125591 0.07846258 -0.28480348 0.26413062 -0.1993343 -0.055797815
-0.3376665 -0.3041819 -0.14446731 -0.18403126 -0.32919097 -0.11144262 -0.3107865 0.21973264
-0.22292155 -0.23955014 -0.0627483 -0.07968584 0.17773944 0.10137829 0.23456034 0.19696978
-0.25194138 0.13101551 0.2639641 0.09676266 -0.26544094 -0.14358078 -0.145727 -0.23352052
-0.15552501 -0.13605538 -0.1457001 -0.04143843 0.082389385 -0.037397265 -0.13613679 0.28368488
0.074441165 -0.27015954 -0.12930697 -0.17676352 0.29663005 -0.25691187 0.07687721 -0.01757574
0.06841361 -0.66733843 0.10803033 0.42641756 -0.05674748 0.06167578 0.2860948 0.18580785
-0.00916476 0.11793307 0.3002482 0.30364716 0.2739751 -0.26771998 0.30593088 -0.28161106
0.28124467 -0.37258303 -0.4318175 -0.08371372 -0.085611865 -0.5472531 -0.5336624 -0.0013928979
0.46122164 0.20114203 -0.025524467 -0.6290289 0.2720074 -0.042005513 -0.34675887 0.28945547
0.4470772 -0.35218087 0.14971103 0.41806257 0.297524 0.15935923 0.056286693 -0.12646458
-0.15093122 0.028783867 0.17327867 0.47176746 0.49516854 -0.20338869 0.3092584 0.07233724
0.24831931 -0.5577786 -0.60192597 -0.5750611 0.35798755 -0.32394844 -0.2910332 -0.19088347
0.4156097 -0.053187687 0.1368115 -0.7088468 0.08107763 0.064397745 -0.6905729 -0.12829381
-0.117534496 -0.14822023 -0.28454974 -0.27013814 0.19107342 0.054445416 -0.18866223 -0.282185
0.024193645 0.16221751 -0.30665916 0.10066983 -0.13263676 0.090411425 0.13300815 0.235841
-0.2502974 -0.109001875 -0.09372845 0.027537644 0.088305146 -0.29040185 0.11700491 0.081118315
0.15636948 -0.24407804 0.19470742 0.063869834 -0.07183527 0.09575742 -0.24369669 -0.16925277
0.18462102 0.1086232 0.26074725 0.17203714 0.23423979 0.12960814 -0.25129753 0.10018608
-0.042787604 -0.11972804 0.32467735 0.12571253 0.40145427 -0.17448813 0.12330567 -0.15800881
-0.25733474 0.15761697 -0.4924003 0.37134388 -0.39177534 0.021668712 0.16553544 0.108902805
0.19891734 0.3409282 0.09689891 -0.12795791 -0.11115385 0.2998485 -0.029205874 -0.19870067
0.06605005 0.560378 -0.06103411 0.106971 0.2716973 -0.10096582 -0.18448329 -0.19978926
-0.029343596 -0.24531838 -0.35946977 -0.2734095 -0.38774145 0.38498837 0.27067488 0.04203984
0.3208144 0.55334693 -0.27691093 -0.2585601 -0.122028805 0.69357663 -0.2314295 -0.25088176
-0.55787736 -0.119205855 0.2581027 0.47352564 -0.036811754 -0.1751414 0.4635912 0.3538225

dense3.bias f4 [32]
00000000: 8133 eabc 85b1 fc3c f4d9 2bbe f803 293e
00000010: c63c 2a3e 72fc 993c bab0 66bd 26d4 983d
00000020: 0b54 2c3d 0940 d93d c51e e9bd 9d8b a2bd
00000030: e9f5 a63c 05cf 6a3e c503 393e 5f5d af3d
00000040: 5c6e 383d 9133 b5bd 6ddc 833e 4f87 653e
00000050: c78e cbbd eb69 f03d a961 733e 2d06 31be
00000060: cc00 b8bc f510 2ebe 971b 3dbb 2abf 6f3d
00000070: fbd3 b4bd b57f 67be 8d1b 18be a894 4bbd
-0.028589012 0.030846367 -0.16782361 0.1650542 0.16624746 0.018797133 -0.056320883 0.07462339
0.042072337 0.10607917 -0.11382822 -0.07936785 0.020380931 0.22930534 0.18067844 0.08562731
0.045027122 -0.08847726 0.2575411 0.22414897 -0.09939342 0.11738952 0.23767723 -0.17287512
-0.022461317 -0.16998656 -0.0028855556 0.058531918 -0.088294946 -0.2260731 -0.1485426 -0.049702317

dense4.weight f4 [2, 32]
00000000: 2135 c9be 4978 a83e 794d a23e ebad 963e
00000010: 4a19 9d3e 5f09 dfbd 570d 81bd 1c06 3cbf
00000020: c16b a1be c047 1c3d 211c b43e a33e 823e
00000030: 5355 15bf a046 a23e aa05 793e 881f 463e
00000040: 1766 b83e 9d58 a3bd 90f7 a23e c7d0 853e
00000050: 31ef 623e 5e55 1bbe d38a c23e 8d71 b7be
00000060: f268 c23e fb70 a0be c443 7abe 522a 133f
00000070: 0ca7 3cbe c22c a8be 602a 1c3c c973 a03e
00000080: 7eab c53e 4560 02bc 84b4 e0bd 0d4d f43e
00000090: bdd6 1e3e cf01 2bbd b4aa c03e 50b5 643e
000000a0: 944a 7d3e c15b 093f aabc 9ebe 81b7 063f
000000b0: 8975 e2be edf5 423e a948 083f 01d0 a73e
000000c0: 038a 9f3e aa1e e73e b890 fc3d 7f83 f13e
000000d0: 5c8f e6be 9499 2fbe 9dbf 383d b3d9 56bd
000000e0: 9ea1 f8be a865 2d3d a0cf c1be 4cff bb3e
000000f0: c4b4 17be 6235 cabe 9e52 383e 2c18 01be
-0.39298347 0.3290427 0.31699732 0.29429564 0.30683357 -0.10890459 -0.063013725 -0.7344682
-0.31527522 0.038154364 0.3517771 0.25438413 -0.5833332 0.31694508 0.24318567 0.19347966
0.36015388 -0.07975886 0.318295 0.26135847 0.22161557 -0.15169284 0.3799654 -0.3582882
0.37970692 -0.31336197 -0.24439913 0.5748645 -0.18423098 -0.32846648 0.009531587 0.31338337
0.386074 -0.007957523 -0.109719306 0.47715035 0.15511604 -0.04174977 0.37630236 0.2233479
0.2473548 0.5365563 -0.31003314 0.52623755 -0.44230297 0.19039126 0.5323587 0.32775882
0.31159982 0.45140582 0.123322904 0.47170636 -0.4503125 -0.17148429 0.04510461 -0.052453708
-0.48560804 0.042333275 -0.37853718 0.36718214 -0.1481505 -0.39493853 0.18000266 -0.12606877

dense4.bias f4 [2]
00000000: 7dc5 723e 8517 3abc
0.23708148 -0.011358147
